weights/metric_3_autoencoder.pth (torch, 58922 bytes, 15 tensors)

encoder.0.weight f4 [64, 60]
-0.18051398 -0.20727535 0.14557427 -0.18894926 -0.061159514 0.025620598 -0.0034497958 0.1848564
-0.08747847 -0.06792234 0.021069275 0.07798682 -0.18627642 0.15357234 0.1228247 0.11258795
0.11158814 -0.1051224 -0.1515962 0.055556763 -0.059319828 0.08549832 0.06527395 -0.024803067
-0.076128885 -0.038462162 0.11626531 0.107336104 0.048210654 -0.12781921 0.18225046 0.07048143
-0.024661262 0.06952506 0.040336855 -0.38850614 -0.13522136 0.051611725 -0.12368018 -0.091407225
-0.049266983 -0.1529111 -0.05016526 0.04845853 -0.03281734 -0.041020207 -0.020066887 0.049257755
-0.03629104 -0.12374865 0.017030895 0.016869545 -0.07248908 0.05107361 0.041611806 -0.06704888
0.012215823 -0.0035257041 0.1047207 0.09546892 0.003399886 -0.053205468 -0.16831493 -0.059830617
-0.19142579 -0.0039798133 0.0384458 0.11411827 0.21711847 -0.040022776 0.14914696 0.0021557375
-0.17476726 0.09364925 -0.19350226 -0.21896973 0.121913426 0.19993527 0.20253935 0.16087788
-0.17659205 -0.02789752 -0.2094085 -0.16051953 0.058763865 -0.07701952 -0.03430197 -0.09446506
-0.055835467 0.22670221 0.0464508 0.21291754 0.042550575 0.091421954 0.00019242354 -0.0131937275
-0.041229192 -0.11117153 -0.20998767 -0.06961427 -0.17135315 -0.014313256 -0.17902455 -0.1374418
0.034414783 -0.10462105 0.06620845 -0.07134376 0.025971994 0.011295468 0.040643677 -0.117345616
0.005286351 -0.07366128 -0.014779136 0.04520473 -0.0735908 0.07494424 -0.08604239 0.037028432
-0.12437968 -0.11180567 -0.14806269 0.20467559 -0.12514515 -0.121359676 -0.14396153 -0.016849263
0.066846564 -0.009489416 0.15485486 -0.15209158 0.07449453 -0.1087429 -0.104937784 0.06930916
0.12592436 -0.10945779 -0.12891133 0.037079535 -0.15877016 0.14372168 -0.09575621 0.061931685
-0.11420207 -0.0003451635 0.04581924 -0.13287503 0.14118546 0.08070415 -0.15288977 -0.20541546
0.10266824 -0.13460128 0.056151014 -0.13270514 -0.07436537 -0.14114588 -0.023818264 -0.053319156
-0.053518105 -0.06297643 0.15132292 -0.028396467 -0.06279911 0.11356741 0.042694867 -0.07457352
-0.11442259 -0.047031343 0.10455984 -0.024301931 -0.08474447 -0.024449445 -0.015267044 -0.08720146
0.020750657 0.06437759 0.101271346 -0.12715536 -0.13845906 -0.16463578 0.09488137 -0.2744217
0.18767476 -0.17389554 -0.0952302 -0.10002782 0.2633325 0.25302413 -0.1493186 -0.18506989
-0.24131925 -0.24823488 0.07485681 -0.22081974 0.17836729 0.061604857 -0.07977653 0.009453847
-0.12914655 -0.081790805 -0.14515825 -0.1587625 0.21587469 -0.09692713 -0.16873145 -0.054746434
0.050787903 0.12047169 -0.012669512 0.13204774 -0.20968501 0.04739477 -0.19204587 -0.040140856
-0.04354791 0.027384134 0.033228558 -0.09337563 -0.14275853 -0.094793804 0.035109375 -0.18214497
0.009642422 -0.10734547 0.06222157 -0.1024416 0.09793578 0.10798015 0.011364356 -0.0115097165
0.034667388 0.106368735 0.12807505 0.0009022504 -0.032140136 -0.084252566 -0.10297095 0.0943121
-0.020752002 -0.0025432091 0.055523686 0.051119316 0.060866725 -0.00969928 0.025728377 -0.009405891
0.04567149 -0.02095927 -0.03688122 -0.039165605 0.052615434 -0.012915356 0.052219003 0.055416092
00000000: a8d8 38be fd3f 54be 6c11 153e ea7b 41be
00000010: 6682 7abd 4ae2 d13c f815 62bb ff4a 3d3e
00000020: e927 b3bd de1a 8bbd 7999 ac3c 8eb7 9f3d
00000030: 3fbf 3ebe 1142 1d3e 848b fb3d 8394 e63d
00000040: 5388 e43d 6a4a d7bd 093c 1bbe 7d8f 633d
00000050: 59f9 72bd be19 af3d 59ae 853d cd2f cbbc
00000060: 76e9 9bbd 808a 1dbd 821c ee3d 08d3 db3d
00000070: 8978 453d 0ae3 02be dd9f 3a3e 9158 903d
00000080: 6a06 cabc 2863 8e3d 4238 253d 47ea c6be
00000090: 7877 0abe d166 533d 094c fdbd b633 bbbd
000000a0: 2dcc 49bd ba94 1cbe 167a 4dbd 747c 463d
000000b0: 7a6b 06bd ce04 28bd 5063 a4bc 80c2 493d
000000c0: eaa5 14bd ef6f fdbd 6084 8b3c 0032 8a3c
000000d0: 2875 94bd 9032 513d 2471 2a3d ec50 89bd
000000e0: e024 483c 800f 67bb ce77 d63d 3685 c33d
000000f0: 9fd0 5e3b faed 59bd c05a 2cbe f310 75bd
00000100: 1f05 44be 1869 82bb 5879 1d3d d7b6 e93d
00000110: 4e54 5e3e ecee 23bd fbb9 183e 4647 0d3b
00000120: 30f6 32be 2ecb bf3d 7525 46be 9a39 60be
00000130: bfad f93d d5bb 4c3e 7a66 4f3e 2cbd 243e
00000140: 8cd4 34be 5789 e4bc 2f6f 56be 3b5f 24be
00000150: 61b2 703d 69bc 9dbd 3980 0cbd e676 c1bd
00000160: bbb3 64bd a024 683e 3243 3e3d 0e07 5a3e
00000170: 8349 2e3d 6f3b bb3d 4dc5 4939 812a 58bc
00000180: f1df 28bd e6ad e3bd 0207 57be ed91 8ebd
00000190: 3377 2fbe 2682 6abc 3652 37be 8bbd 0cbe
000001a0: 84f6 0c3d 9043 d6bd 4c98 873d ad1c 92bd
000001b0: 38c3 d43c a010 393c fc79 263d e652 f0bd
000001c0: 2039 ad3b badb 96bd 3024 72bc 9828 393d
000001d0: c6b6 96bd 5e7c 993d fe36 b0bd 20ab 173d
000001e0: c6ba febd 5ffa e4bd bf9d 17be 7a96 513e
000001f0: 0d26 00be 6c8b f8bd a76a 13be 7707 8abc
00000200: dae6 883d 7f79 1bbc 4692 1e3e e5bd 1bbe
00000210: 9790 983d 99b4 debd 9fe9 d6bd f6f1 8d3d
00000220: 51f2 003e 682b e0bd 5501 04be b6e0 173d
00000230: a594 22be c72b 133e d51b c4bd 14ac 7d3d
00000240: c6e2 e9bd 10f7 b4b9 f5ac 3b3d 6410 08be
00000250: ec92 103e 3848 a53d 238f 1cbe 6e58 52be
00000260: ba43 d23d ebd4 09be 9bfe 653d dbe3 07be
00000270: df4c 98bd 8c88 10be 851e c3bc 3065 5abd
00000280: cd35 5bbd c9f9 80bd 65f4 1a3e b59f e8bc
00000290: d29c 80bd 0896 e83d d0e0 2e3d 00ba 98bd
000002a0: 6456 eabd f0a3 40bd 7823 d63d d814 c7bc
000002b0: 828e adbd 344a c8bc a022 7abc ae96 b2bd
000002c0: 48fd a93c 66d8 833d 5a67 cf3d 0435 02be
000002d0: 36c8 0dbe 4896 28be 2a51 c23d 0081 8cbe
000002e0: d02d 403e ac11 32be 0d08 c3bd 63db ccbd
000002f0: 84d3 863e 618c 813e fae6 18be f682 3dbe
00000300: 651c 77be 4931 7ebe 874e 993d 921e 62be
00000310: eaa5 363e 6055 7c3d e161 a3bd 4fe4 1a3c
00000320: fe3e 04be f081 a7bd 5da4 14be a392 22be
00000330: 410e 5d3e bb81 c6bd f0c7 2cbe cc3d 60bd
00000340: fa06 503d ddb9 f63d c993 4fbc 8637 073e
00000350: abb7 56be 0521 423d aca7 44be bd6a 24bd
00000360: 4b5f 32bd b154 e03c ab1a 083d b93b bfbd
00000370: 4b2f 12be 4123 c2bd d9ce 0f3d 3684 3abe
00000380: 40fb 1d3c f1d7 dbbd 0cdc 7e3d e7cc d1bd
00000390: 8e92 c83d b224 dd3d 9031 3a3c 4093 3cbc
000003a0: 64ff 0d3d dad7 d93d 1b26 033e 0085 6c3a
000003b0: 60a5 03bd 9c8c acbd 6fe2 d2bd b426 c13d
000003c0: 1a00 aabc f8ab 26bb ce6c 633d 7d62 513d
000003d0: 634f 793d bbe9 1ebc 51c4 d23c 2b1b 1abc
000003e0: 0712 3b3d c6b2 abbc c310 17bd 1d6c 20bd
000003f0: 4883 573d ee9a 53bc 98e3 553d fcfb 623d

encoder.0.bias f4 [64]
0.1634934 0.09467849 0.084045455 0.040894277 -0.06606982 0.101314746 0.05903014 0.39433601
0.008832286 0.018965729 0.02612713 0.061299738 0.10000676 0.083791904 0.076801956 0.18027754
0.09059367 0.1387167 0.13670635 0.005152426 0.11116766 0.2743924 0.14107002 0.0055935197
0.14663489 0.087124415 0.013155873 0.15228266 0.061964512 0.022738341 0.047957588 -0.024240052
0.18634707 0.13310756 0.07856484 0.098433346 0.073277704 -0.0022081493 0.1575394 0.09240496
0.09009956 -0.041215427 0.19895355 0.1928177 0.17393175 0.05694676 0.019261478 0.09335176
0.14862326 0.0031664704 -0.022172438 0.0424688 0.08946707 0.11178682 0.13492483 0.019711258
0.21396825 0.12149378 0.016432054 0.08769565 -0.044084787 0.022462014 0.0025710224 -0.006650676
00000000: d06a 273e cce6 c13d 0620 ac3d c280 273d
00000010: 9d4f 87bd 1b7e cf3d 97c9 713d 69e6 c93e
00000020: 4bb5 103c 045e 9b3c 9008 d63c 6f15 7b3d
00000030: 58d0 cc3d 179b ab3d 584a 9d3d ad9a 383e
00000040: 2d89 b93d c00b 0e3e c0fc 0b3e afd5 a83b
00000050: dfab e33d 297d 8c3e a974 103e d849 b73b
00000060: 7527 163e 496e b23d bb8b 573c fcef 1b3e
00000070: 80ce 7d3d c245 ba3c 2d6f 443d 1393 c6bc
00000080: c4d1 3e3e 594d 083e 9ae6 a03d 6c97 c93d
00000090: 9f12 963d 99b6 10bb 0252 213e d03e bd3d
000000a0: 1e86 b83d 82d1 28bd 7bba 4b3e 0172 453e
000000b0: 2a1b 323e 0141 693d 3fca 9d3c 352f bf3d
000000c0: b230 183e 8f84 4f3b f9a2 b5bc c4f3 2d3d
000000d0: 833a b73d 7df0 e43d bc29 0a3e 8179 a13c
000000e0: 7e1a 5b3e bbd1 f83d 849c 863c c799 b33d
000000f0: 4092 34bd 4202 b83c 997e 283b eaed d9bb

encoder.2.weight f4 [32, 64]
0.04245939 0.13027935 0.016201213 -0.038320377 0.07388441 -0.050296318 0.02566156 0.50123745
0.1616677 -0.0364627 0.026450485 0.17611429 0.101067305 0.08442857 0.015604492 0.122267865
0.15285566 0.040082127 0.30175847 0.034809142 0.15095344 0.08063001 0.042658184 0.18925652
0.1702577 0.14990333 0.03618673 -0.05003077 0.1852837 0.16510287 0.10487851 0.19412614
0.14316306 0.06389549 0.022302212 -0.02013133 0.07263297 0.112592906 0.13692252 0.07721223
-0.019353043 0.029115334 -0.015507779 0.10818143 -0.0076231877 0.018212909 0.035442468 0.0993024
0.17808165 0.27343982 0.14123988 0.040615242 0.057660673 0.009754575 0.022377746 0.14340366
-0.050837178 0.20360127 0.104759015 0.049948286 0.17861106 0.008256505 0.038483337 0.14596143
-0.17626978 -0.14801799 0.24990681 -0.146149 0.05193968 -0.07707405 -0.2367576 0.11174486
0.13006993 0.019051995 -0.023579169 0.015147258 -0.073411524 0.13999839 0.12465687 0.1663014
0.10118559 0.17552808 0.023992017 -0.080358595 -0.070068434 0.076691106 -0.026904631 -0.10985234
0.15274969 0.04332679 0.39079943 0.13319571 0.089445576 -0.121468015 0.23015115 0.120874345
-0.0642599 -0.08751859 0.052740257 0.044409752 0.13254756 0.25338045 -0.09076114 -0.0941793
0.022644572 0.12311083 -0.05980353 -0.012919345 0.09266395 -0.10036249 0.2725287 0.053611953
-0.075424805 0.21790105 0.11461042 0.039935656 0.3284374 -0.01619815 0.1192025 0.19336738
0.056326304 0.02408045 -0.3115453 -0.13186489 0.12042153 -0.31391904 0.14428459 0.107365884
0.1870421 0.20017505 0.11590361 0.06817561 -0.05325303 0.10596885 0.18315682 0.36439225
0.015394676 0.02201783 0.04633844 0.096230716 0.108277746 0.11319932 0.030791158 0.035235167
0.12816963 0.035776395 0.22460364 -0.023947401 0.1888498 0.28149354 0.06397784 0.17264973
0.18658938 0.06433139 0.020233877 -0.040063374 0.08288946 0.13449124 -0.037727114 0.18661238
-0.0030670417 0.17667781 0.011648818 0.011959048 0.059840374 0.049777176 0.13556382 -0.0052068327
0.063733436 0.02732085 0.1548626 0.013399349 0.21058697 0.014017834 0.07206619 0.101737864
0.12662873 0.20004946 0.15486747 0.08505453 0.17130862 0.13433313 0.05640163 0.13750151
-0.033843167 0.120389014 0.12302415 0.053975556 0.19711131 0.10940447 0.10679754 0.16102639
0.028004963 0.015349394 0.23470387 -0.45801926 0.120286934 0.05445507 -0.49657655 0.5980148
0.30042335 -0.13765086 0.13997574 0.31361455 -0.36146975 -0.05948393 0.07932708 0.5684576
0.2767799 0.11444862 -0.16455962 -0.44956976 0.22909862 -0.03225819 -0.43258664 -0.17929612
0.43498313 -0.21039881 0.60924363 0.55637497 -0.0103916535 -0.5850277 0.20834315 0.21528018
-0.111291215 -0.031438835 0.460968 0.53110003 0.09537396 0.38256586 -0.10821729 -0.28351286
0.30521363 0.23981144 -0.027603121 -0.14839564 0.32155654 -0.59691393 0.4590483 0.29880127
-0.18779859 0.24481732 -0.11752487 0.060671877 0.80763966 0.16705567 0.31249526 0.22326215
0.12239257 0.30007505 -0.80398494 -0.47622195 -0.13804726 -0.53638136 0.4689636 -0.04054117
00000000: e6e9 2d3d f367 053e 68b8 843c d4f5 1cbd
00000010: b650 973d 8303 4ebd 3138 d23c 1951 003f
00000020: 388c 253e ea59 15bd b0ae d83c 4e57 343e
00000030: 60fc ce3d e3e8 ac3d fca9 7f3c 9367 fa3d
00000040: 3286 1c3e 282d 243d 1680 9a3e 0894 0e3d
00000050: 8a93 1a3e 5921 a53d 59ba 2e3d 76cc 413e
00000060: 0958 2e3e 4280 193e 8938 143d 11ed 4cbd
00000070: 03bb 3d3e ba10 293e 8bca d63d 01c9 463e
00000080: 5699 123e a3db 823d 21b3 b63c 75ea a4bc
00000090: 98c0 943d 1c97 e63d 6b35 0c3e 7221 9e3d
000000a0: 468a 9ebc 4883 ee3c 5714 7ebc 3a8e dd3d
000000b0: efcb f9bb 3d33 953c 1f2c 113d 0f5f cb3d
000000c0: 095b 363e 4e00 8c3e 30a1 103e 2b5c 263d
000000d0: 992d 6c3d a7d1 1f3c 8951 b73c 69d8 123e
000000e0: a53a 50bd da7c 503e e58b d63d 9396 4c3d
000000f0: d1e5 363e 4b46 073c b4a0 1d3d ea76 153e
00000100: 1180 34be 0792 17be 92e7 7f3e 15a8 15be
00000110: b4be 543d 00d9 9dbd 9670 72be 7dda e43d
00000120: 0d31 053e ee12 9c3c 1a29 c1bc 342c 783c
00000130: c858 96bd bd5b 0f3e 1a4c ff3d ea4a 2a3e
00000140: 643a cf3d a2bd 333e e88a c43c 0c93 a4bd
00000150: 0a80 8fbd 3a10 9d3d 1a67 dcbc 43fa e0bd
00000160: 6a6a 1c3e 6f77 313d dd16 c83e 7564 083e
00000170: 3e2f b73d 39c4 f8bd beac 6b3e f88c f73d
00000180: b29a 83bd f23c b3bd 2b06 583d 00e7 353d
00000190: 8cba 073e 15bb 813e fae0 b9bd 14e1 c0bd
000001a0: 1c81 b93c 8821 fc3d 8cf4 74bd a9ab 53bc
000001b0: 99c6 bd3d d98a cdbd e288 8b3e 3598 5b3d
000001c0: 5278 9abd 7421 5f3e deb8 ea3d 9293 233d
000001d0: f228 a83e fcb1 84bc 7120 f43d 1902 463e
000001e0: 69b6 663d 5d44 c53c de82 9fbe 9707 07be
000001f0: 909f f63d ffb9 a0be 57bf 133e a5e2 db3d
00000200: f787 3f3e b0fa 4c3e df5e ed3d a79f 8b3d
00000210: d91f 5abd 3206 d93d 768d 3b3e 9f91 ba3e
00000220: f339 7c3c bc5e b43c 60cd 3d3d 9c14 c53d
00000230: b9c0 dd3d 0cd5 e73d bd3d fc3c c052 103d
00000240: e63e 033e 458a 123d 7ffe 653e 572d c4bc
00000250: d861 413e ec1f 903e d006 833d 17cb 303e
00000260: 4911 3f3e 2dc0 833d 84c1 a53c 7e19 24bd
00000270: f3c1 a93d 12b8 093e bf87 1abd 5117 3f3e
00000280: 6c00 49bb 07eb 343e afda 3e3c e2ef 433c
00000290: 2e1b 753d 27e3 4b3d 3ed1 0a3e 149e aabb
000002a0: ad86 823d facf df3c 4d94 1e3e f188 5b3c
000002b0: 1ca4 573e 0fab 653c 7097 933d f15b d03d
000002c0: f6aa 013e c4d9 4c3e 9495 1e3e 1231 ae3d
000002d0: 876b 2f3e a08e 093e 6505 673d 32cd 0c3e
000002e0: 229f 0abd 848e f63d 16f4 fb3d 7915 5d3d
000002f0: 8cd7 493e 730f e03d abb8 da3d 1ae4 243e
00000300: aa6a e53c 067c 7b3c 3656 703e 8081 eabe
00000310: ff58 f63d 480c 5f3d 483f febe 7f17 193f
00000320: 17d1 993e 59f4 0cbe cd55 0f3e 1692 a03e
00000330: 9012 b9be 6ca5 73bd 3c76 a23d 7086 113f
00000340: 18b6 8d3e 0a64 ea3d 5182 28be 022e e6be
00000350: d498 6a3e 2a21 04bd ff7b ddbe 6799 37be
00000360: 1cb6 de3e c972 57be 64f7 1b3f 976e 0e3f
00000370: c141 2abc 60c4 15bf e857 553e 6872 5c3e
00000380: a6ec e3bd 02c6 00bd ff03 ec3e 2cf6 073f
00000390: 6c53 c33d acdf c33e 07a1 ddbd 9928 91be
000003a0: f644 9c3e 2191 753e f11f e2bc 07f5 17be
000003b0: 0fa3 a43e 5acf 18bf 6108 eb3e 7bfc 983e
000003c0: 464e 40be 64b1 7a3e e1b0 f0bd 1383 783d
000003d0: 79c1 4e3f a410 2b3e 61ff 9f3e d59e 643e
000003e0: f5a8 fa3d 70a3 993e f5d1 4dbf 5dd3 f3be
000003f0: 435c 0dbe 4a50 09bf ff1b f03e 7f0e 26bd

encoder.2.bias f4 [32]
-0.01417591 0.019128257 0.006264097 0.1107403 0.014012016 0.16726355 0.1914866 0.04835301
0.20841295 0.19238803 0.079144605 0.039769076 0.14136918 -0.07366975 0.083689004 -0.0025584716
0.13513774 0.13352835 -0.068956584 0.0624299 0.11650223 -0.036007583 -0.041281305 0.0500516
0.15665445 0.17502357 -0.010097012 0.05834312 0.019850051 -0.11362262 -0.047339804 0.20200014
00000000: 1342 68bc ddb2 9c3c 0e43 cd3b cfcb e23d
00000010: a892 653c 2347 2b3e 1015 443e ce0d 463d
00000020: 346a 553e 5e01 453e 9116 a23d e6e4 223d
00000030: 15c3 103e 2ae0 96bd 2465 ab3d 08ac 27bb
00000040: 8c61 0a3e a8bb 083e 1c39 8dbd 7fb6 7f3d
00000050: b998 ee3d b07c 13bd 9616 29bd e802 4d3d
00000060: 066a 203e 6139 333e f06d 25bc 32f9 6e3d
00000070: 939c a23c fab2 e8bd 62e7 41bd 20d9 4e3e

encoder.4.weight f4 [16, 32]
0.1506489 0.24289058 0.23307706 0.36320665 0.13067973 0.064149424 0.14015095 0.25164005
0.17101435 0.17789009 -0.015084699 -0.11648325 0.20457773 0.20370913 0.015810419 0.07745287
-0.0372722 0.052500423 0.49790415 -0.00399767 0.16699621 0.23940906 0.12316225 0.26136294
0.07548536 0.14877447 0.10392652 0.6183431 -0.1580972 -0.17452784 0.26220334 0.19225857
0.16705267 -0.21178141 0.1494327 0.0482822 0.02014548 0.04539247 -0.045271218 0.14066298
0.08882961 -0.104829066 -0.11728468 0.1585877 -0.11436226 0.03456799 0.069374785 0.026477706
0.021447113 -0.26688156 0.54629016 -0.06548718 0.15745111 0.123235844 -0.14390175 0.078675
-0.23460451 -0.11164753 0.14662921 0.33223248 -0.17600188 0.016410679 -0.010545143 0.11664884
0.008335215 -0.38815793 0.12470986 -0.25392023 0.015323996 0.10568916 0.07160989 0.24172193
0.053846918 0.09677281 0.028672712 0.48797846 -0.10026201 -0.022954373 0.07346004 -0.07502775
-0.067459226 0.11958058 0.49157193 0.21469875 0.1667182 0.03944796 -0.13824242 0.18602768
0.010473137 -0.19877177 0.0395551 0.65038484 -0.08375782 -0.0953085 0.011743741 -0.0020013582
-0.1046034 -0.13434091 0.10338628 -0.12061593 -0.17265 -0.11644256 0.020120418 0.14478964
0.14321141 -0.10825477 0.023201019 -0.10563475 0.08140692 0.0793602 -0.031940807 -0.07339862
0.12848227 0.11423861 -0.007835582 0.09033887 -0.12696129 0.064501785 -0.14822118 -0.03326345
0.049809165 -0.11433656 0.011070927 0.13157369 0.08192083 -0.14919607 -0.022400325 -0.16569173
0.2512112 -0.09212919 -0.010639128 -0.060028315 0.21228395 0.27034166 0.15639094 0.1552164
0.2567694 0.08099348 -0.055096608 1.162405 0.112840496 -0.03462303 0.20866919 0.26627037
-0.031352405 0.22966188 -0.5064464 0.118516654 0.13706318 0.105317675 -4.3013784e-05 -0.008443663
0.24952234 -0.010211046 0.013468544 -0.91227597 0.24610133 0.10868554 0.27025414 -0.0923279
0.17917858 0.27579406 0.088494614 0.26710972 -0.016019067 -0.12258715 0.11905813 -0.08624341
0.036515143 -0.11487942 -0.05274351 -0.10081076 -0.15095183 0.08606403 -0.036913365 0.050507646
-0.17589203 0.0041255327 -0.25490433 -0.035689052 -0.12524989 0.3133425 -0.12722681 -0.08623149
0.023647055 0.28338018 -0.016075753 -0.27176687 0.1696224 -0.115750775 0.14668977 0.40232018
-0.059502993 -0.1244446 0.1391682 -0.17811833 0.16752489 -0.06645131 0.008058081 0.1449349
0.1713524 0.23158295 0.25163215 0.45798013 -0.019623742 -0.14839968 -0.076081656 0.23277865
0.17569393 -0.03181998 0.1406769 0.17008062 0.14432965 0.10203141 -0.10366107 0.21668527
0.1547952 -0.46233726 0.27496687 0.066441335 0.08631334 -0.026309535 0.15079767 -0.28366396
0.12670644 -0.192515 0.16155156 0.118210725 0.15247501 0.005672667 0.09155377 0.09146616
0.10838912 0.020455465 -0.053676363 0.8645203 0.1502053 -0.07561379 0.09031105 0.15313084
-0.12581316 0.12790029 0.10388337 0.24717043 0.21625316 0.05509333 -0.06479084 0.05932803
0.19994463 -0.05145495 0.04249453 0.25511953 0.04042009 0.10289998 0.14940627 -0.17936398
00000000: b543 1a3e 4fb8 783e c1ab 6e3e 39f6 b93e
00000010: e8d0 053e c660 833d bb83 0f3e f7d6 803e
00000020: 631e 2f3e d228 363e d025 77bc c58e eebd
00000030: d37c 513e 2099 503e da84 813c 9c9f 9e3d
00000040: bcaa 18bd af0a 573d 4bed fe3e e3fe 82bb
00000050: 0e01 2b3e a627 753e 7d3c fc3d 5dd1 853e
00000060: 1298 9a3d 5658 183e 6dd7 d43d bc4b 1e3f
00000070: 3be4 21be 6db7 32be 843f 863e 6edf 443e
00000080: db0f 2b3e 3add 58be e304 193e 8ec3 453d
00000090: 2208 a53c 74ed 393d 506e 39bd f509 103e
000000a0: 4cec b53d 9fb0 d6bd f332 f0bd d064 223e
000000b0: c336 eabd 2a97 0d3d 5e14 8e3d c6e7 d83c
000000c0: dbb1 af3c b3a4 88be acd9 0b3f 251e 86bd
000000d0: dd3a 213e 1363 fc3d fb5a 13be 5c20 a13d
000000e0: 2a3c 70be 76a7 e4bd f825 163e 601a aa3e
000000f0: d639 34be b06f 863c 89c5 2cbc 96e5 ee3d
00000100: 6d90 083c a3bc c6be e267 ff3d d501 82be
00000110: 7f11 7b3c 8f73 d83d 35a8 923d f485 773e
00000120: 968e 5c3d d330 c63d 09e3 ea3c 50d8 f93e
00000130: 2b56 cdbd cf0a bcbc 3872 963d 26a8 99bd
00000140: 1028 8abd aae6 f43d 51af fb3e fdd9 5b3e
00000150: 2db8 2a3e 2f94 213d 6c8f 0dbe 0a7e 3e3e
00000160: 8597 2b3c d48a 4bbe 8704 223d 9f7f 263f
00000170: 3889 abbd 1a31 c3bd d268 403c 3829 03bb
00000180: 4f3a d6bd aa90 09be 30bc d33d 7c05 f7bd
00000190: 29cb 30be 7079 eebd 93d3 a43c bc43 143e
000001a0: 03a6 123e adb4 ddbd 1010 be3c 0857 d8bd
000001b0: acb8 a63d 9a87 a23d 5dd4 02bd 0452 96bd
000001c0: db90 033e eff5 e93d d060 00bc 9603 b93d
000001d0: 2402 02be 8319 843d 4bc7 17be 413f 08bd
000001e0: b204 4c3d 4929 eabd d562 353c 41bb 063e
000001f0: 1cc6 a73d dbc6 18be e380 b7bc 18ab 29be
00000200: c19e 803e 3bae bcbd bd4f 2ebc 40e0 75bd
00000210: f760 593e 396a 8a3e f224 203e 0cf1 1e3e
00000220: 4777 833e e9df a53d fbac 61bd b0c9 943f
00000230: eb18 e73d e1d0 0dbd 60ad 553e 9754 883e
00000240: 616b 00bd 7c2c 6b3e 79a6 01bf dcb8 f23d
00000250: 4a5a 0c3e cbb0 d73d b369 34b8 4a57 0abc
00000260: c982 7f3e 3b4c 27bc 2bab 5c3c eb8a 69bf
00000270: fd01 7c3e 8696 de3d c05e 8a3e 6916 bdbd
00000280: 977a 373e e134 8d3e aa3c b53d 9bc2 883e
00000290: 6b3a 83bc f90e fbbd c0d4 f33d 63a0 b0bd
000002a0: e790 153d e745 ebbd 9409 58bd df75 cebd
000002b0: 1e93 1abe 5742 b03d 7832 17bd 1be1 4e3d
000002c0: 0a1d 34be 7a2f 873b d282 82be af2e 12bd
000002d0: 8241 00be 6e6e a03e bf47 02be 239a b0bd
000002e0: 78b7 c13c 3517 913e 4cb1 83bc 0725 8bbe
000002f0: 7fb1 2d3e be0e edbd d835 163e e9fc cd3e
00000300: 69b9 73bd cfdc febd 1c82 0e3e a764 36be
00000310: a58b 2b3e a017 88bd 0b06 043c d069 143e
00000320: 0177 2f3e 1524 6d3e eed5 803e 5f7c ea3e
00000330: f8c1 a0bc 16f6 17be b3d0 9bbd 875d 6e3e
00000340: 1ce9 333e ab55 02bd 9b0d 103e 9d29 2e3e
00000350: 27cb 133e d8f5 d03d 414c d4bd bee2 5d3e
00000360: a282 1e3e 78b7 ecbe 75c8 8c3e 6512 883d
00000370: 0cc5 b03d 1887 d7bc b46a 1a3e 673c 91be
00000380: 55bf 013e a722 45be c66d 253e 7718 f23d
00000390: 6922 1c3e c8e1 b93b 8b80 bb3d 9c52 bb3d
000003a0: 1dfb dd3d 3892 a73c bfdb 5bbd 3451 5d3f
000003b0: 6bcf 193e 67db 9abd 00f5 b83d 55ce 1c3e
000003c0: 2ad5 00be 4bf8 023e cec0 d43d 3f1a 7d3e
000003d0: 7871 5d3e 8ba9 613d 0fb1 84bd f301 733d
000003e0: 49be 4c3e 6dc2 52bd bf0e 2e3d 079f 823e
000003f0: 898f 253d 3abd d23d f5fd 183e 31ab 37be

encoder.4.bias f4 [16]
0.16913126 -0.15879963 0.14993136 -0.1866896 -0.014541381 0.080940425 0.13084757 0.14723709
0.017757101 0.16370015 0.22329201 0.0720891 -0.14242288 0.0592257 0.042657696 0.14472991
00000000: bf30 2d3e 5f9c 22be 9b87 193e 8f2b 3fbe
00000010: f93e 6ebc 18c4 a53d e8fc 053e 52c5 163e
00000020: 5777 913c 03a1 273e a9a6 643e 73a3 933d
00000030: 4ed7 11be a696 723d d6b9 2e3d 1434 143e

decoder.0.weight f4 [32, 16]
0.17683016 0.5507116 0.29000998 -0.21919665 -0.037428554 -0.12718695 0.028092666 0.22904745
-0.20564288 0.23686211 0.14570232 0.15708297 0.24183844 -0.17984937 0.23898107 0.11946805
0.10950691 0.010710927 -0.20643106 -0.21756688 0.1229018 0.40943617 -0.5269067 0.04116407
0.39757824 -0.22966993 0.20717968 -0.3039627 -0.45714796 0.13259476 -0.0038490293 0.37091452
-0.13377123 -0.26469594 0.018797537 0.22760063 0.0087268995 0.09662172 0.18308923 0.29035008
0.1331578 0.2522176 0.050320648 -0.19935682 0.119579315 -0.10965906 0.2273511 0.047674008
0.26273137 -0.031753857 0.18989353 0.08694606 0.30146334 -0.13425545 0.15359184 0.21962233
0.034619994 -0.15293169 -0.11511248 -0.066083 -0.10962784 0.24322955 0.21010888 0.29942614
0.06347846 -0.029635571 0.010674752 -0.20191716 0.15957582 -0.21796323 0.23151968 0.17053877
-0.30519262 -0.09904047 0.17694917 0.2305978 0.21787421 0.074373305 0.16808634 -0.0054564076
0.2002176 0.36447352 0.36345363 -0.09072481 0.07665473 -0.034632143 0.14970443 0.12707776
0.08736433 0.2530985 0.036199085 0.11054888 0.18667822 -0.4969525 0.24761738 0.1832972
0.031904038 0.5919436 -0.09618249 -0.20404945 -0.14719115 -0.31356183 0.023785817 0.1581649
-0.06554174 0.22312035 0.20567036 0.04154625 -0.11560947 -0.22657794 0.0039917207 -0.07530506
-0.32233167 0.13607587 0.10139555 -0.079286784 0.2962796 -0.116458856 -0.12817922 0.14899263
-0.25091046 0.015339933 -0.003663925 0.28943065 0.22368586 0.16828443 -0.18103963 -0.32322004
0.13392983 0.17728223 -0.028440194 0.023565192 0.41050836 0.08534024 -0.17348108 0.38200113
0.49192053 -0.21419346 0.3277836 -0.20852415 0.8302714 -0.49667746 0.3672186 0.40089074
0.06810226 0.28746074 0.16203861 0.088173315 0.076277874 -0.21322997 0.077894755 0.33603776
-0.16094168 0.08099673 0.058486026 0.13759193 -0.009704323 -0.13030456 0.13989612 -0.06798901
0.32905212 0.08561169 0.105328195 0.0349458 -0.055905282 0.3813566 -0.12157058 0.28981474
0.25463924 -0.12335265 -0.15626802 0.21171036 -0.12055166 -0.4030582 0.2205767 0.49310845
0.11814209 -0.19947323 0.4787608 0.097363174 0.21428762 -0.3167234 0.3370432 0.38761148
-0.58624905 0.6638317 0.31852004 0.18107636 0.48862016 0.36675408 0.46746618 -0.14175259
0.28635213 0.042044263 0.33165532 -0.23126173 -0.13208146 -0.044568527 0.27145594 0.01579168
-0.055965118 -0.13497852 0.123925984 -0.0073297373 -0.015763763 0.19936676 0.20280868 0.22523995
-0.24066797 0.014215438 -0.19128115 -0.2112135 0.12021748 0.026885998 -0.14096613 0.17990837
0.044184513 0.13200133 0.028176071 0.11133557 0.31347668 0.4065719 0.20653275 0.11811605
0.3174566 0.19082783 0.041991394 0.14129607 0.31501412 -0.086748466 -0.12708618 0.33481166
0.05369571 0.25528616 0.22881682 0.28487858 -0.10591195 0.016047008 0.2889628 0.24115495
0.20419136 -0.13495877 0.15420355 0.11422293 0.026001431 0.25460202 -0.050405193 0.23086448
-0.07478323 -0.059216402 0.22899994 -0.119054414 -0.191457 0.13830827 0.097369984 0.24653046
00000000: f712 353e 6ffb 0c3f 307c 943e 1675 60be
00000010: af4e 19bd 4c3d 02be 9722 e63c 6a8b 6a3e
00000020: 0c94 52be fb8b 723e fd32 153e 5cda 203e
00000030: 7fa4 773e 6f2a 38be 74b7 743e aaab f43d
00000040: 2945 e03d e27c 2f3c aa62 53be dac9 5ebe
00000050: f0b3 fb3d 9ea1 d13e 5ce3 06bf a89b 283d
00000060: 608f cb3e 982e 6bbe e926 543e 00a1 9bbe
00000070: 4c0f eabe ecc6 073e ff3f 7cbb 82e8 bd3e
00000080: 53fb 08be 3a86 87be 4bfd 993c 2410 693e
00000090: 45fb 0e3c 9ce1 c53d be7b 3b3e c4a8 943e
000000a0: 855a 083e aa22 813e 061d 4e3d 3224 4cbe
000000b0: 00e6 f43d ee94 e0bd bace 683e d245 433d
000000c0: ba84 863e 5510 02bd 7373 423e c710 b23d
000000d0: 6759 9a3e 437a 09be 2e47 1d3e ade4 603e
000000e0: b2cd 0d3d 209a 1cbe 18c0 ebbd 8656 87bd
000000f0: 9084 e0bd 2b11 793e c826 573e 624e 993e
00000100: ff00 823d 4cc6 f2bc 28e5 2e3c 5fc3 4ebe
00000110: d867 233e c131 5fbe 7f13 6d3e b7a1 2e3e
00000120: 3542 9cbe bbd5 cabd 2a32 353e d421 6c3e
00000130: 6b1a 5f3e 0851 983d d31e 2c3e aacb b2bb
00000140: d805 4d3e 469c ba3e 9816 ba3e eecd b9bd
00000150: 28fd 9c3d 6fda 0dbd 1e4c 193e ac20 023e
00000160: 12ec b23d 2096 813e 7e45 143d 7467 e23d
00000170: 9328 3f3e 8f70 febe 698f 7d3e 43b2 3b3e
00000180: cfad 023d 9e89 173f 53fb c4bd 57f2 50be
00000190: 47b9 16be 2d8b a0be 79da c23c fbf5 213e
000001a0: bf3a 86bd a979 643e 409b 523e 672c 2a3d
000001b0: a8c4 ecbd 0c04 68be fbcc 823b 8a39 9abd
000001c0: a808 a5be 7957 0b3e 78a8 cf3d 1c61 a2bd
000001d0: f6b1 973e fb81 eebd 6a41 03be 8691 183e
000001e0: 5677 80be 5854 7b3c 761e 70bb 4130 943e
000001f0: e80d 653e c152 2c3e 7462 39be 197d a5be
00000200: e724 093e 7989 353e 69fb e8bc ca0b c13c
00000210: 272e d23e ddc6 ae3d 06a5 31be a795 c33e
00000220: 02dd fb3e 8855 5bbe 41d3 a73e 5b87 55be
00000230: ab8c 543f 824c febe 1404 bc3e 8d41 cd3e
00000240: 3379 8b3d 0e2e 933e 73ed 253e 3694 b43d
00000250: 9337 9c3d f558 5abe 4987 9f3d 240d ac3e
00000260: e5cd 24be 9de1 a53d 0b8f 6f3d e6e4 0c3e
00000270: e1fe 1ebc 8f6e 05be ee40 0f3e d23d 8bbd
00000280: 8579 a83e 2f55 af3d 4fb6 d73d 5423 0f3d
00000290: f0fc 64bd 2c41 c33e fff9 f8bd 9962 943e
000002a0: 1360 823e 50a0 fcbd b904 20be 9aca 583e
000002b0: cae3 f6bd a55d cebe dcde 613e b678 fc3e
000002c0: 7bf4 f13d b642 4cbe 2320 f53e 5866 c73d
000002d0: 376e 5b3e 9229 a2be ed90 ac3e 0375 c63e
000002e0: 6b14 16bf e0f0 293f 0f15 a33e 156c 393e
000002f0: 6c2c fa3e 31c7 bb3e ba57 ef3e 9727 11be
00000300: bf9c 923e 9b36 2c3d bace a93e e0cf 6cbe
00000310: 5d40 07be 7d8d 36bd 46fc 8a3e 8e5d 813c
00000320: ae3b 65bd cf37 0abe e8cc fd3d 4b2e f0bb
00000330: 0223 81bc cd26 4c3e 14ad 4f3e 4da5 663e
00000340: aa71 76be dee7 683c 35df 43be 5a48 58be
00000350: 9534 f63d 0640 dc3c 6d59 10be e639 383e
00000360: d2fa 343d 5b2b 073e 81d1 e63c e703 e43d
00000370: 0480 a03e 312a d03e 527d 533e d4e6 f13d
00000380: ac89 a23e 5f68 433e 2bff 2b3d ebaf 103e
00000390: 8849 a13e 2ea9 b1bd e122 02be 6f6c ab3e
000003a0: 08f0 5b3d deb4 823e f54e 6a3e 9bdb 913e
000003b0: 5de8 d8bd 0475 833c eff2 933e 53f1 763e
000003c0: 8a17 513e a232 0abe 89e7 1d3e b6ed e93d
000003d0: f400 d53c 325b 823e ad75 4ebd bd67 6c3e
000003e0: f327 99bd e68c 72bd f67e 6a3e cdd2 f3bd
000003f0: 4e0d 44be afa0 0d3e ea69 c73d 7b72 7c3e

decoder.0.bias f4 [32]
0.08912574 0.026654476 -0.11578088 0.10660309 0.32130358 -0.045418683 0.21670738 -0.21292107
-0.8691416 0.21908179 0.0224239 -0.2870453 0.2566387 -0.5311978 0.17373517 0.22625561
0.20797695 -0.14322442 0.10112275 0.26956913 0.19618082 0.071482375 -0.07290289 0.25542283
-0.042358994 -0.22985649 0.22323048 -0.155824 0.100337215 0.19868644 -0.25201914 -0.09642727
00000000: 8e87 b63d 7d5a da3c 871e edbd b952 da3d
00000010: e781 a43e f108 3abd 8ae8 5d3e fb07 5abe
00000020: 1080 5ebf fa56 603e 54b2 b73c 9af7 92be
00000030: 2666 833e 94fc 07bf a2e7 313e 8daf 673e
00000040: e9f7 543e 6ca9 12be 7219 cf3d f704 8a3e
00000050: a0e3 483e 5a65 923d 1c4e 95bd c8c6 823e
00000060: a080 2dbd 805f 6bbe 8896 643e 5490 1fbe
00000070: 997d cd3d 7574 4b3e a708 81be a97b c5bd

decoder.2.weight f4 [64, 32]
0.10753011 -0.20746806 -0.17720988 0.18106522 0.16891132 0.27608037 -0.044492316 0.3330458
-0.68705654 0.24062434 0.1353172 -0.17745423 0.18733709 0.35434258 0.1074882 0.13236822
-0.12130027 0.16187255 0.06031795 0.13661431 -0.0938292 0.15856905 -0.16325961 0.044500586
-0.11199357 -0.038234606 0.010611604 -0.14013937 -0.1386305 0.04718589 -0.007917924 0.16659112
0.2263619 0.08361079 -0.2196489 0.33090177 0.24274474 0.2149474 0.39500356 -0.27475294
-0.2367894 0.25713313 0.4411763 -0.1896533 0.33556494 -0.5142657 0.16986023 0.36999872
0.20999575 -0.46065545 0.34287214 0.41274434 0.36403355 0.19173652 -0.10275846 0.4407642
-0.12617856 -0.04312192 0.21979538 -0.09256561 0.18000254 0.29783258 0.30086213 -0.3079386
0.11079649 0.014993626 0.15932477 0.23325332 0.042818952 0.21691664 0.096528865 0.19764504
-0.70926183 0.03671788 0.050494768 0.58837444 -0.06589838 0.11084943 -0.027152864 -0.004236015
-0.23628406 0.094883405 0.25798965 -0.05925462 0.08474092 0.1120657 0.14702536 0.18890572
-0.012703523 0.07152857 0.17297362 -0.09223403 -0.029359166 -0.04300845 0.28582457 0.23195042
0.21901925 -0.22854513 0.20422573 -0.023642944 0.18527476 0.1975274 0.05973931 0.10354479
0.6045976 0.23035818 0.07081143 0.38978308 0.034242842 0.049341552 0.20157695 0.12943654
-0.16727927 0.059138287 0.23955432 0.05179406 -0.040353544 0.04049363 -0.14313209 0.15612966
0.021825865 -0.04336627 -0.1186052 0.040501293 0.18043785 0.20910959 -0.08116351 0.117942534
0.051550277 0.08953585 -0.0565536 -0.06198903 -0.116593875 -0.066758566 -0.0022679248 0.0126065165
-0.08660231 -0.0959675 0.07185009 -0.069238044 -0.14091136 0.040649623 -0.13504028 0.15717843
-0.12374057 -0.15993029 0.02071174 -0.03884692 -0.046175256 0.007933711 -0.016695753 -0.19476072
-0.11576751 0.16950656 0.0945566 -0.15032272 -0.057625283 -0.08375095 -0.14520282 -0.07625214
-0.013320354 0.17735454 -0.018516624 0.12682621 0.2569455 0.3111872 0.25282836 -0.2595174
-0.17454319 0.023651268 0.25024116 -0.25966746 0.02723975 -0.01807822 0.16007718 0.1724385
0.36832035 0.20147057 -0.039956994 0.21969825 0.0060499413 0.23647416 -0.050277084 -0.07697148
0.12773748 -0.0660415 0.11189916 -0.053883057 -0.102173716 0.10099151 0.1168971 -0.001975791
0.20907435 0.40887502 0.11365838 0.062200043 0.14890032 0.15999128 -0.08374072 0.29061022
0.040652096 0.2286748 0.107514314 -0.4021539 0.20612763 0.34085348 0.23877421 -0.0999486
0.33593288 0.14137793 0.10955278 0.04613509 0.04835702 0.20158711 -0.09770099 -0.09055301
-0.078504845 0.16635923 -0.03680826 0.077926375 0.15995465 0.21528846 -0.016563829 -0.061837092
0.13715814 0.30264342 -0.0059433426 0.035909154 0.15738997 0.18947816 0.10767275 0.28202456
0.13679792 0.08759021 -0.07031562 -0.027292853 0.18299095 -0.04680845 0.116663545 -0.020910252
0.36433372 0.16517824 -0.039882626 0.04589906 0.064295895 -0.10017828 0.053871274 0.11240996
0.104841664 -0.14747927 -0.012583542 0.15038209 -0.069065124 0.19332953 -0.14741693 0.16361448
00000000: bf38 dc3d 8272 54be 8276 35be 2969 393e
00000010: 17f7 2c3e 685a 8d3e 933d 36bd fb84 aa3e
00000020: f0e2 2fbf 3a66 763e 9890 0a3e 90b6 35be
00000030: 4bd5 3f3e 646c b53e c622 dc3d 898b 073e
00000040: 476c f8bd ebc1 253e f40f 773d 9fe4 0b3e
00000050: 8629 c0bd ed5f 223e 872d 27be 3f46 363d
00000060: e35c e5bd e49b 1cbd 4bdc 2d3c b280 0fbe
00000070: 27f5 0dbe fe45 413d 2eba 01bc dd96 2a3e
00000080: 6acb 673e 223c ab3d a4eb 60be f56b a93e
00000090: 1492 783e 2c1b 5c3e e83d ca3e 6bac 8cbe
000000a0: ec78 72be f4a6 833e dce1 e13e 7a34 42be
000000b0: 2bcf ab3e eba6 03bf d7ef 2d3e 7970 bd3e
000000c0: 2009 573e 08db ebbe f08c af3e 3a53 d33e
000000d0: 9b62 ba3e 9456 443e 0773 d2bd d8ab e13e
000000e0: f434 01be 9ca0 30bd 0a12 613e 0a93 bdbd
000000f0: 9652 383e 837d 983e 9a0a 9a3e 21aa 9dbe
00000100: 45e9 e23d d3a7 753c 0826 233e f5d9 6e3e
00000110: ed62 2f3d 651f 5e3e edb0 c53d 7663 4a3e
00000120: 2f92 35bf 7d65 163d 9ad3 4e3d b59f 163f
00000130: bbf5 86bd 0705 e33d af6f debc 45ce 8abb
00000140: 73f4 71be 3b52 c23d 3817 843e f9b4 72bd
00000150: a68c ad3d b482 e53d d18d 163e 8070 413e
00000160: 7022 50bc 927d 923d ff1f 313e 32e5 bcbd
00000170: a282 f0bc a129 30bd 9957 923e 6984 6d3e
00000180: 9546 603e bc07 6abe 8d20 513e d9ae c1bc
00000190: abb8 3d3e 9f44 4a3e 35b1 743d 4a0f d43d
000001a0: e9c6 1a3f 04e3 6b3e 9505 913d a691 c73e
000001b0: 3942 0c3d 5e1a 4a3d 306a 4e3e 038b 043e
000001c0: 424b 2bbe fd3a 723d ba4d 753e 0226 543d
000001d0: c249 25bd a6dc 253d 3891 12be 74e0 1f3e
000001e0: 28cc b23c d4a0 31bd 48e7 f2bd afe4 253d
000001f0: b3c4 383e d320 563e 0e39 a6bd db8b f13d
00000200: 6226 533d 925e b73d bfa4 67bd 36e8 7dbd
00000210: c5c8 eebd b7b8 88bd 77a1 14bb 908b 4e3c
00000220: 8d5c b1bd 9c8a c4bd 2426 933d adcc 8dbd
00000230: 114b 10be 3880 263d 0048 0abe 62f3 203e
00000240: b26b fdbd c4c4 23be abab a93c f31d 1fbd
00000250: 4422 3dbd 65fc 013c 88c5 88bc 5b6f 47be
00000260: 8417 edbd 2193 2d3e e4a6 c13d 33ee 19be
00000270: 7d08 6cbd 9e85 abbd 0cb0 14be 152a 9cbd
00000280: 9d3d 5abc 6e9c 353e 2db0 97bc bbde 013e
00000290: 5c8e 833e ee53 9f3e b872 813e 77df 84be
000002a0: 73bb 32be 4ec0 c13c 9c1f 803e 22f3 84be
000002b0: e525 df3c c618 94bc 46eb 233e b893 303e
000002c0: 7c94 bc3e 4d4e 4e3e f2a9 23bd 94f8 603e
000002d0: 963e c63b 4826 723e 58ef 4dbd 39a3 9dbd
000002e0: 9dcd 023e c440 87bd 632b e53d 7bb4 5cbd
000002f0: 7440 d1bd a3d4 ce3d bf67 ef3d 467c 01bb
00000300: 9617 563e 1158 d13e bac5 e83d 79c5 7e3d
00000310: 5379 183e c1d4 233e 4180 abbd ddca 943e
00000320: d082 263d ba29 6a3e 7730 dc3d 1ee7 cdbe
00000330: 1f13 533e 5984 ae3e 3a81 743e dab1 ccbd
00000340: 65ff ab3e 60c5 103e 355d e03d 26f8 3c3d
00000350: 0312 463d da6c 4e3e 7517 c8bd db73 b9bd
00000360: 26c7 a0bd 135a 2a3e 42c4 16bd dd97 9f3d
00000370: 27cb 233e 9474 5c3e deb0 87bc e448 7dbd
00000380: 2f73 0c3e 14f4 9a3e 5fc0 c2bb 7a15 133d
00000390: d62a 213e 9006 423e 8883 dc3d 8665 903e
000003a0: c114 0c3e 7f62 b33d a301 90bd 4395 dfbc
000003b0: fb61 3b3e 38ba 3fbd 4ced ee3d fa4b abbc
000003c0: f389 ba3e 7c24 293e f75b 23bd a700 3c3d
000003d0: 91ad 833d 452a cdbd 20a8 5c3d 3137 e63d
000003e0: 3ab7 d63d ce04 17be 332b 4ebc c3fd 193e
000003f0: 0472 8dbd 2df8 453e 77f4 16be 8e8a 273e

decoder.2.bias f4 [64]
0.14680412 0.21858971 0.21956317 0.12709506 0.14433247 0.17686866 0.1694485 0.16574395
-0.13891365 -0.102087654 0.09922541 0.1631513 0.14923024 0.17964989 -0.5592912 -0.004370187
0.071336225 -0.05399797 -0.026950628 0.05738993 0.030672316 0.17091492 0.15861267 0.1561864
0.029171184 0.08946737 -0.100719616 0.065115936 -0.1805527 0.1030232 0.17951493 0.15398645
0.17572296 0.12872067 0.18578604 0.07081294 0.12508628 -0.08143587 0.04779756 0.22517613
-0.06808788 0.059652556 -0.00024654946 -0.07092873 -0.022730887 -0.10208183 -0.119074576 -0.13731152
-0.12256269 -0.11385399 0.15700987 -0.09505998 0.1320602 0.14277035 0.07203716 -0.50878584
-0.17474034 0.010066435 0.16326657 0.16343306 0.19552381 0.08261081 0.14855215 0.05232093
00000000: d253 163e fbd5 5f3e 2bd5 603e 3525 023e
00000010: e4cb 133e 0f1d 353e e883 2d3e c8b8 293e
00000020: 613f 0ebe 5513 d1bd b136 cb3d 2211 273e
00000030: d0cf 183e 24f6 373e b52d 0fbf c933 8fbb
00000040: ba18 923d fa2c 5dbd 90c7 dcbc b411 6b3d
00000050: 8244 fb3c 5204 2f3e 5c6b 223e 54ef 1f3e
00000060: 68f8 ee3c ab3a b73d 1646 cebd 815b 853d
00000070: cfe2 38be d4fd d23d c3d2 373e a0ae 1d3e
00000080: b8f0 333e 5acf 033e b23e 3e3e 6006 913d
00000090: 9e16 003e d9c7 a6bd 60c7 433d 9294 663e
000000a0: a971 8bbd 3d56 743d 4f43 81b9 1543 91bd
000000b0: 2036 babc 4710 d1bd 5fdd f3bd 649b 0cbe
000000c0: 2602 fbbd 482c e9bd 32c7 203e cfae c2bd
000000d0: ca3a 073e 6432 123e 3888 933d ca3f 02bf
000000e0: 22ef 32be b0ed 243c 5a2f 273e ff5a 273e
000000f0: 6537 483e db2f a93d 0e1e 183e 794e 563d

decoder.4.weight f4 [60, 64]
-0.13269238 0.229665 -0.19229843 -0.048795875 0.04719514 0.08683936 0.059826866 0.077342495
0.012595668 -0.13740446 -0.19074976 -0.11166008 -0.14077829 0.04354711 -0.5630159 0.053788964
-0.2533206 -0.020706132 0.14311509 -0.21373956 -0.037199475 -0.051213957 0.13285229 -0.09310414
0.08518813 -0.10616707 0.0739885 -0.13332634 -0.07751449 -0.10540545 -0.16388005 0.13032682
0.09663666 -0.2073048 -0.21334913 0.08405123 -0.09427591 -0.032699462 0.054295428 -0.90989095
0.039881952 -0.16208062 0.08024587 0.08215144 0.099984005 0.028560473 -0.047219522 -0.041236952
0.18103746 -0.118064895 -0.15651102 0.106830284 -0.22422074 -0.040461175 0.09220106 0.099677995
-0.028730571 0.08756308 -0.06410169 0.17378059 -0.15091428 0.21751232 -0.057483975 0.14560801
0.10865379 0.2477777 0.019521298 -0.09378499 0.057279937 0.089550115 0.06102496 0.024632875
-0.07468681 -0.008735578 -0.075340234 0.12086317 0.035646502 -0.040669996 -0.52827454 0.060578223
-0.05577578 -0.08584814 0.044740103 0.08386047 -0.11729652 -0.056502257 0.043482013 -0.06726753
-0.28962448 -0.0036453495 -0.06878776 -0.058714576 -0.042727068 -0.0008425463 0.07320205 0.09656864
0.07930009 0.06798848 0.08968318 0.0048135803 0.00056461344 0.07668894 0.09032643 0.016076064
-0.14110017 0.12096707 0.0034837597 -0.08798047 -0.029327214 -0.0054085334 -0.008707332 0.042572625
-0.10292623 -0.08354574 0.13432357 -0.04616864 -0.07460181 -0.05068168 -0.009235429 -0.4453729
-0.025084317 -0.038543865 -0.07368288 0.07497441 0.023120543 0.22530486 0.13600524 0.08036566
0.025187127 -0.21484986 -0.10511242 -0.16104026 0.0260026 -0.14171281 -0.1526715 -0.15469502
0.07464354 -0.028044589 -0.17363992 -0.056252584 -0.03642277 -0.16264722 0.7121436 -0.19592214
-0.12146239 -0.053503886 -0.11461205 -0.020446213 0.033721525 -0.07566497 -0.08531928 -0.19400108
0.021934072 0.025431788 -0.040466737 -0.050929338 -0.029324172 -0.037231237 0.0023582538 -0.056508128
-0.11165168 -0.19636294 -0.075985506 0.023185382 -0.08876396 -0.11060812 0.03690855 0.45349
-0.19887802 -0.12386137 -0.047947578 -0.06725621 -0.11077902 -0.055211253 0.0837668 0.1067356
-0.08661239 -0.035998184 -0.14184174 -0.0808506 -0.019684592 -0.07588217 -0.029164819 0.34239388
0.09092806 -0.12244737 -0.0007276775 -0.036097813 -0.12634537 -0.056301504 -0.16222204 -0.096887216
-0.09064319 0.2871502 -0.13777293 -0.060371544 -0.0636921 0.02797285 -0.16286287 -0.08615466
-0.027571425 -0.06258634 0.0070687137 -0.13275595 -0.1303954 -0.04135648 0.8929137 -0.09812256
-0.18489668 -0.09970902 -0.08213882 -0.005423774 0.04984657 -0.16214666 0.018186985 -0.08347112
-0.24337769 -0.017686898 -0.14143437 -0.13592759 -0.09473368 0.054160804 -0.05905229 0.015139676
0.025749791 -0.07525938 0.015469011 -0.13097897 -0.022649715 -0.05039215 0.076485634 0.033760853
-0.14947225 -0.18092313 -0.06457707 0.056202054 -0.054967687 0.0754208 0.028320897 0.051476724
-0.06849584 0.054974116 0.04499348 0.029014036 -0.013607165 -0.18939528 -0.13240907 -0.0699961
-0.0708272 -0.08800778 -0.110909946 -0.130973 -0.12091033 -0.08320268 -0.013530773 0.009671882
00000000: 83e0 07be 4d2d 6b3e e1e9 44be 2fde 47bd
00000010: b14f 413d d6d8 b13d 040d 753d be65 9e3d
00000020: 105e 4e3c c1b3 0cbe e853 43be 0aae e4bd
00000030: 2f28 10be 745e 323d cf21 10bf d151 5c3d
00000040: 3db3 81be e89f a9bc c38c 123e 8bde 5abe
00000050: 7a5e 18bd bac5 51bd 6e0a 083e 62ad bebd
00000060: 1d77 ae3d 1f6e d9bd 4887 973d b386 08be
00000070: ebbf 9ebd d0de d7bd 2cd0 27be 6574 053e
00000080: 71e9 c53d b647 54be 3278 5abe 0d23 ac3d
00000090: ba13 c1bd dfef 05bd e264 5e3d 9dee 68bf
000000a0: 425b 233d 76f8 25be f257 a43d 043f a83d
000000b0: 6ac4 cc3d a7f7 e93c 4269 41bd 14e8 28bd
000000c0: e261 393e 02cc f1bd 6d44 20be d6c9 da3d
000000d0: 1f9a 65be 9eba 25bd e9d3 bc3d fa23 cc3d
000000e0: 605c ebbc 4654 b33d bf47 83bd 8af3 313e
000000f0: 4689 1abe 8dbb 5e3e 5174 6bbd 441a 153e
00000100: e185 de3d 70b9 7d3e 21eb 9f3c 5812 c0bd
00000110: 5e9e 6a3d 0d66 b73d 4ff5 793d e2ca c93c
00000120: 66f5 98bd ab1f 0fbc fb4b 9abd 1c87 f73d
00000130: 1102 123d 9595 26bd 003d 07bf df20 783d
00000140: 2575 64bd 26d1 afbd 6641 373d 0abf ab3d
00000150: 2839 f0bd e96e 67bd 321a 323d 8fc3 89bd
00000160: a949 94be d1e6 6ebb 99e0 8cbd b27e 70bd
00000170: 9402 2fbd 53de 5cba f5ea 953d c7c5 c53d
00000180: 1668 a23d 8b3d 8b3d d1ab b73d 3dbb 9d3b
00000190: 9102 143a 170f 9d3d 10fd b83d f3b1 833c
000001a0: 907c 10be 95bd f73d ca4f 643b 1b2f b4bd
000001b0: a03f f0bc 113a b1bb 33a9 0ebc a260 2e3d
000001c0: fdca d2bd 071a abbd 1e8c 093e 541b 3dbd
000001d0: d5c8 98bd 9897 4fbd 3250 17bc eb07 e4be
000001e0: a07d cdbc 2ce0 1dbd 0de7 96bd 2f8c 993d
000001f0: 4b67 bd3c 51b6 663e f544 0b3e c096 a43d
00000200: 3c55 ce3c 9a01 5cbe 2e45 d7bd bde7 24be
00000210: 6803 d53c 2a1d 11be eb55 1cbe 5f68 1ebe
00000220: b6de 983d c4bd e5bc aace 31be 1c69 66bd
00000230: 0b30 15bd fe8c 26be 0b4f 363f d09f 48be
00000240: 46c1 f8bd e426 5bbd b9b9 eabd d17e a7bc
00000250: 951f 0a3d 3cf6 9abd e0bb aebd 38a8 46be
00000260: 15af b33c 5356 d03c 73c0 25bd 489b 50bd
00000270: 3f39 f0bc c87f 18bd ef8c 1a3b 1175 67bd
00000280: a3a9 e4bd 5e13 49be 4a9e 9bbd 45ef bd3c
00000290: e1c9 b5bd 8386 e2bd 6b2d 173d d72f e83e
000002a0: aea6 4bbe 08ab fdbd ae64 44bd a0bd 89bd
000002b0: 1ce0 e2bd 3225 62bd ee8d ab3d 3298 da3d
000002c0: d661 b1bd d572 13bd f63e 11be 0095 a5bd
000002d0: 9541 a1bc 1c68 9bbd 0feb eebc 404e af3e
000002e0: 7e38 ba3d b0c5 fabd 9cc1 3eba 4ddb 13bd
000002f0: ae60 01be 689c 66bd 891d 26be ce6c c6bd
00000300: 23a3 b9bd 5a05 933e 5914 0dbe 2748 77bd
00000310: 0171 82bd 5127 e53c 86c5 26be db71 b0bd
00000320: 78dd e1bc 442d 80bd aba0 e73b 2df1 07be
00000330: 5f86 05be 6a65 29bd fe95 643f 7bf4 c8bd
00000340: 8e55 3dbe 3e34 ccbd 6638 a8bd eab9 b1bb
00000350: eb2b 4c3d c609 26be dffc 943c e8f2 aabd
00000360: 0038 79be 1de4 90bc 2cd4 10be 9a30 0bbe
00000370: bb03 c2bd b8d7 5d3d d0e0 71bd 670c 783c
00000380: 3af1 d23c 9721 9abd bc71 7d3c 5a1f 06be
00000390: e58b b9bc 0068 4ebd 80a4 9c3d d248 0a3d
000003a0: 410f 19be ea43 39be fc40 84bd 2034 663d
000003b0: cc25 61bd 3876 9a3d 3a01 e83c 42d9 523d
000003c0: 8c47 8cbd 8a2c 613d 154b 383d d8ae ed3c
000003d0: 96f0 5ebc d6f0 41be 3e96 07be 1e5a 8fbd
000003e0: da0d 91bd 6c3d b4bd c124 e3bd c91d 06be
000003f0: d69f f7bd 2b66 aabd 2db0 5dbc d076 1e3c

decoder.4.bias f4 [60]
-0.048260063 -0.1337515 -0.043218397 -0.14573076 -0.063948475 -0.13089147 0.038514074 0.051815458
-0.17504017 0.0015357551 -0.011097455 0.0131010115 -0.10692218 -0.13250765 -0.023856431 0.051628325
-0.024696548 -0.013132344 -0.046148956 -0.14219335 0.0322626 -0.14691916 -0.15898156 -0.09131963
-0.1567965 -0.030154135 -0.06930925 -0.065442726 -0.07218182 0.025367621 -0.089456 0.049419098
0.039138198 -0.07918801 0.007260454 0.0057071503 -0.06766469 -0.11968228 -0.08242471 -0.13227539
-0.1420021 0.0725616 -0.03732239 0.052008912 -0.006010955 -0.110827856 0.027599312 -0.0312854
-0.040408663 -0.1447234 -0.11143217 -0.16037302 0.042267386 -0.12471712 -0.024405355 -0.024438623
-0.03886804 -0.15939516 -0.05886929 -0.097010046
00000000: 58ac 45bd 27f6 08be c605 31bd 723a 15be
00000010: 6bf7 82bd 6a08 06be efc0 1d3d 723c 543d
00000020: bb3d 33be 644b c93a 1ad2 35bc a0a5 563c
00000030: 04fa dabd 16b0 07be 906e c3bc 3978 533d
00000040: 6a50 cabc 0b29 57bc b006 3dbd 229b 11be
00000050: ca25 043d fa71 16be 10cc 22be c905 bbbd
00000060: 438f 20be ce05 f7bc 02f2 8dbd d606 86bd
00000070: 10d4 93bd c2cf cf3c b534 b7bd ae6b 4a3d
00000080: 604f 203d 532d a2bd 1ae9 ed3b 0c03 bb3b
00000090: c993 8abd fc1b f5bd 49ce a8bd 3373 07be
000000a0: 0069 11be 2d9b 943d 5ddf 18bd 4c07 553d
000000b0: 8cf7 c4bb b7f9 e2bd f417 e23c 1f25 00bd
000000c0: 8e83 25bd 5f32 14be 8d36 e4bd d338 24be
000000d0: 9120 2d3d b06b ffbd bded c7bc 8233 c8bc
000000e0: 1834 1fbd 7c38 23be ed20 71bd 34ad c6bd

classification_head.0.weight f4 [8, 16]
-0.0092179915 -0.018215757 -0.14480962 0.027297646 0.07812807 0.031131966 -0.13325232 -0.14996158
-0.004461313 0.16011277 0.0060816295 0.02738747 0.12970859 -0.1423261 -0.07471856 -0.03492917
0.0721759 0.31579158 0.11915399 0.06448278 0.2531542 -0.4565901 -0.046777215 0.38524592
-0.16626255 0.072775975 0.34681648 0.08192968 0.013018479 0.10318851 0.097976945 -0.046326876
0.26419947 -0.06519597 -0.3211721 0.040453404 0.15225501 1.0308441 0.070276394 0.107474424
0.3468868 -0.17676815 -0.1267611 0.036885682 -0.068112895 -0.062106647 -0.22082534 0.5394317
0.09182724 -0.11804155 0.4155885 -0.05579868 0.36712185 -0.23253012 -0.071000375 0.3388966
-0.0751581 0.107082985 0.36878443 0.17967501 0.09380359 0.14639997 0.35206375 -0.316769
0.32413128 0.0008242963 0.9226109 0.17593268 0.58893615 -0.73842037 0.9041183 0.6491717
-0.5446525 0.8555772 0.68320966 0.8302125 0.0062291287 0.42968717 0.49099576 -0.33684075
-0.13120547 0.19924587 -0.016549706 -0.22827685 0.23067069 -0.24602434 0.11128032 -0.0719977
-0.04488656 -0.09191513 -0.024692625 -0.09616873 -0.24836552 -0.18227577 -0.18385223 -0.008765429
-0.12945095 -0.117535524 0.15542427 -0.18950403 0.36833626 -0.14662737 0.3464932 0.10940788
-0.27880824 0.28118002 0.17833596 0.16391517 0.05789765 0.35368544 -0.101931565 0.22081612
0.12651587 0.16918719 0.16262779 -0.017823935 0.12083119 0.035871238 -0.15727991 -0.12558737
-0.1570257 -0.10779598 -0.1387968 -0.23702127 -0.21712872 0.15213192 -0.15409935 -0.17200458
00000000: 0f07 17bc 3639 95bc f948 14be 509f df3c
00000010: 9c01 a03d 7708 ff3c 4c73 08be 878f 19be
00000020: 3530 92bb 9af4 233e 6848 c73b b05b e03c
00000030: 54d2 043e efbd 11be 0b06 99bd e411 0fbd
00000040: f5d0 933d 6faf a13e 0207 f43d 8c0f 843d
00000050: 6d9d 813e 2dc6 e9be 7799 3fbd f43e c53e
00000060: bb40 2abe 920b 953d ee91 b13e c0ca a73d
00000070: 754b 553c 7f54 d33d 23a8 c83d 40c1 3dbd
00000080: 2745 873e 7785 85bd ab70 a4be 78b2 253d
00000090: bde8 1b3e b3f2 833f 12ed 8f3d 8d1b dc3d
000000a0: 269b b13e b602 35be a9cd 01be 7115 173d
000000b0: c67e 8bbd 8a63 7ebd 0a20 62be 3218 0a3f
000000c0: ec0f bc3d c5bf f1bd 04c8 d43e 288d 64bd
000000d0: 65f7 bb3e 601c 6ebe a568 91bd db83 ad3e
000000e0: 7dec 99bd 534e db3d 50d1 bc3e bafc 373e
000000f0: 191c c03d e0e9 153e b341 b43e 8c2f a2be
00000100: 89f4 a53e 9715 583a 3a30 6c3f b227 343e
00000110: 85c4 163f 1e09 3dbf 4c74 673f 1e30 263f
00000120: 596e 0bbf 1b07 5b3f d4e6 2e3f ce88 543f
00000130: b81d cc3b f5ff db3e cc63 fb3e 6476 acbe
00000140: ba5a 06be 1c07 4c3e 4093 87bc 68c1 69be
00000150: f034 6c3e ceed 7bbe f0e6 e33d 8873 93bd
00000160: f8da 37bd 003e bcbd 3048 cabc 1cf4 c4bd
00000170: 8853 7ebe 80a6 3abe c243 3cbe e09c 0fbc
00000180: ca8e 04be 77b6 f0bd 8a27 1f3e 580d 42be
00000190: 9296 bc3e 7c25 16be 8f67 b13e 3d11 e03d
000001a0: f4bf 8ebe d4f6 8f3e b49d 363e 61d9 273e
000001b0: 1626 6d3d 4216 b53e 7fc1 d0bd 9f1d 623e
000001c0: 608d 013e 683f 2d3e e687 263e 8003 92bc
000001d0: 5876 f73d b8ed 123d fc0d 21be fa99 00be
000001e0: 58cb 20be 24c4 dcbd c020 0ebe b4b5 72be
000001f0: fe56 5ebe 78c8 1b3e 38cc 1dbe f821 30be

classification_head.0.bias f4 [8]
-0.21641773 0.6070716 -0.40671995 0.58349943 1.8988082 0.1907996 0.2893961 -0.025461972
00000000: 9c9c 5dbe 0b69 1b3f 993d d0be 3860 153f
00000010: 260c f33f f860 433e ba2b 943e a095 d0bc

classification_head.2.weight f4 [1, 8]
0.18041953 -0.21607885 0.4014917 -0.14542086 -1.0739489 -0.0449605 -0.22255902 -0.33422405
00000000: e6bf 383e c643 5dbe 5290 cd3e 35e9 14be
00000010: 2877 89bf 8028 38bd 83e6 63be 6a1f abbe
