weights/metric_2_autoencoder.pth (torch, 58922 bytes, 15 tensors)

encoder.0.weight f4 [64, 60]
000000 54 43 3d be a7 ec b9 be 52 58 28 3e ba f4 b6 bd
       -0.18482715 -0.36313364 0.16439942 -0.08933397
000010 85 54 0a be d3 f5 15 3d 0a 67 86 bd 3f 25 f7 bd
       -0.13508804 0.03661139 -0.06562622 -0.12067651
000020 93 f9 82 be bf c3 02 3e 13 c5 21 be 10 fd 3e 3e
       -0.25581035 0.12769984 -0.15797834 0.18651223
000030 0b 09 4c be 87 67 88 3e 3e 93 41 be 87 df dc bd
       -0.19925325 0.26641485 -0.18903825 -0.10784822
000040 60 27 09 3e 92 ce e8 bd 07 03 82 bd e5 43 0d bf
       0.13393927 -0.11367525 -0.06348234 -0.55181724
000050 4c 56 48 be 5f 90 03 bd cd 0a f6 3d 54 43 63 3c
       -0.1956417 -0.032120105 0.12013779 0.013871033
000060 5d 13 7d 3e e9 94 92 be ed d1 e8 3d 64 9d 6a bc
       0.24714418 -0.28629234 0.11368165 -0.014319751
000070 f5 bc 31 3e ae c1 5f bd 82 d8 a3 3d c4 e5 92 3e
       0.17357238 -0.054628067 0.0800028 0.28690922
000080 87 52 66 be b3 9b 33 be ff ea 3d bd aa bd ba be
       -0.22492419 -0.17539863 -0.046366688 -0.36472827
000090 c7 f5 2b be f6 21 b2 3d 54 98 d1 3d a7 1b 98 3d
       -0.16792975 0.08697884 0.102341324 0.07427149
0000a0 be 53 cb bd eb 8b 8e 3e 50 9a 57 3e 34 02 68 be
       -0.09928082 0.27841124 0.2105496 -0.2265709
0000b0 68 e1 34 bd ec b2 0e 3d 6a 32 02 bd 9c 45 a0 3d
       -0.044160277 0.034838602 -0.03178636 0.07825777
0000c0 be c4 06 bd d0 09 06 3d ea 15 bd 3d 80 28 46 bb
       -0.03290247 0.0327242 0.092326954 -0.0030236542
0000d0 10 ef 60 bc 7c 68 01 be a2 f1 9b bd 68 54 33 bc
       -0.013728872 -0.12637514 -0.07614447 -0.010945417
0000e0 f0 5f 97 3c 84 b8 e1 3d f8 d8 ae 3d ee a6 1a bd
       0.018478364 0.11021522 0.08537477 -0.037756853
0000f0 a5 ed c1 ba 6d e2 aa 3d 7d 83 13 3d 1b a4 46 be
       -0.0014795555 0.083439685 0.03601407 -0.19398539
000100 1d 15 25 3e 03 05 30 bd 44 98 ff 3d 86 70 06 3e
       0.16121335 -0.04297353 0.12480214 0.13128862
000110 5e 46 11 3d 25 23 55 ba 9c 7b 4d be 68 ba ea bd
       0.035467498 -0.0008130542 -0.20066684 -0.114613354
000120 b2 bd 4c 3e 23 3d 65 bd e2 23 a5 bc bf e5 01 be
       0.19994238 -0.055966508 -0.020158712 -0.12685297
000130 0e 8d 02 3e 0d 0f 5a 3e c6 6a 84 be ba 32 c5 3d
       0.1274912 0.21294804 -0.25862712 0.09628816
000140 39 af d2 3d bd 24 2b be 5c 12 e3 bd 33 e1 02 3d
       0.10287327 -0.16713233 -0.11087486 0.031953048
000150 2b 17 93 bc a7 e2 b9 bd f5 ac 8a bc f1 f6 8e bd
       -0.017955383 -0.09076434 -0.016928175 -0.06980694
000160 ad 5e 4e 3c e0 33 01 be 31 7b 19 3d e5 23 e8 3a
       0.012595815 -0.12617445 0.037471 0.0017710893
000170 f8 44 18 bc 42 c8 04 3e 89 7a 45 3d c6 80 a7 bc
       -0.009293787 0.12967017 0.04821256 -0.020447146
000180 bb 1e 45 bd b4 71 a7 3b 29 6c ca 3d d9 3f 69 3d
       -0.04812501 0.00510999 0.09883911 0.056945655
000190 e3 3f 85 3d 05 13 f0 3d 77 2b 1a 3d db dc 9b be
       0.06506326 0.11722378 0.037639108 -0.30441937
0001a0 5e 19 80 3d 22 1c 91 bd b3 d5 a9 bd 9c 7b 23 3d
       0.062548384 -0.07085444 -0.08292713 0.039912805
0001b0 c5 a8 ac bd 38 5a c7 3d a4 79 b6 3d 00 41 79 3b
       -0.08430628 0.09734005 0.0890992 0.0038033128
0001c0 02 75 f5 3d 4b 6a cb bd 5a 0b 3b bd 58 6f 93 3d
       0.11985208 -0.09932383 -0.045665123 0.071989715
0001d0 fe 30 a9 3d fc 7a f8 bd f5 5a f2 bd 28 8a 53 3d
       0.08261298 -0.121328324 -0.11833755 0.051645428
0001e0 03 3e f0 bd 24 36 fa 3b 89 7b 65 be 98 d1 c3 3d
       -0.11730578 0.0076358486 -0.22410406 0.09561461
0001f0 30 2c d7 3d 9a 9e e7 3d c7 22 b5 3d 6f 41 17 be
       0.10506475 0.11309548 0.08844524 -0.14771055
000200 5e dd 49 be 9f eb 5f 3d 4f 84 39 be 3a bf b4 bd
       -0.19713351 0.054668065 -0.18116878 -0.08825536
000210 77 42 e8 3d 86 7b 1a 3e f5 2d 2a be 98 0e ba bd
       0.11340802 0.15086183 -0.16619094 -0.09084815
000220 95 bd bc bd ce 45 23 be 71 6e d7 bd 56 61 8f bd
       -0.092158474 -0.15944597 -0.10519112 -0.07000987
000230 18 b5 1f be da 72 26 3c 3d 97 02 be 54 09 a9 bd
       -0.15596426 0.010159219 -0.12753005 -0.08253732
000240 6c 88 1e 3e 1d 92 10 3e a0 49 d6 3d 12 ee 5c 3d
       0.15481728 0.14118238 0.104632616 0.05393798
000250 7c 27 7e ba 90 86 13 3d 05 c1 8d bd 7f 7d 5a 3d
       -0.00096952147 0.036017 -0.06921581 0.05334234
000260 fb 9d 56 bd 3d a5 bb bd fc 35 f5 3d 81 97 41 3d
       -0.052396756 -0.09162376 0.11973187 0.047263626
000270 e5 cc f9 bd c8 42 d2 bc 97 cc ce 3d d5 7f 12 3e
       -0.12197284 -0.02566661 0.10097616 0.14306577
000280 c1 e7 38 be 6e 59 b8 3e 46 84 8f 3e 79 93 98 be
       -0.18057157 0.3600573 0.28030604 -0.29800013
000290 30 e0 7e 3c 7f d5 d1 bd 6e f6 4f bd bc 67 55 3d
       0.01555638 -0.10245799 -0.050772123 0.052100882
0002a0 80 fa ee 3a b8 36 9d bd b6 ff a7 3d f1 d8 8a bd
       0.0018232614 -0.076764524 0.0820307 -0.067796595
0002b0 82 5d 60 bd 8b c3 00 3e 7b 18 00 be d0 45 b8 3d
       -0.054776676 0.12574594 -0.12509339 0.08997691
0002c0 5e 56 94 3d dc cc 97 bd 16 0a 3d bd a0 52 01 3d
       0.07243036 -0.07412121 -0.046152197 0.031572938
0002d0 0d 20 24 bd 0b 76 05 3b f2 43 0e bd cb e3 a6 3c
       -0.04006963 0.0020364549 -0.034732766 0.020372292
0002e0 40 90 1d 3e cb ca eb bd 7d a1 3d 3e 7e 28 c3 3d
       0.15387058 -0.11513289 0.18518634 0.09529208
0002f0 12 11 e5 3d 4a ad 3d be f5 8c 93 bc 8b 1f ac bd
       0.111848965 -0.18523136 -0.01801155 -0.08404454
000300 71 e1 3a be ad f4 eb 3d 04 f3 00 3e 9d e8 fe bd
       -0.18250062 0.115212776 0.12592703 -0.12446711
000310 98 04 50 bd 6b 46 8b 3d 92 93 2f be 71 04 8b 3d
       -0.05078563 0.068005405 -0.17146137 0.067879565
000320 2c f7 d1 bd cb 8b 29 3d d1 62 23 bc b7 65 16 be
       -0.102522224 0.041393083 -0.00997229 -0.14687239
000330 09 e2 59 3e 21 07 0b be 7a c2 80 3d 06 83 8b bd
       0.21277632 -0.13576938 0.062870935 -0.068121
000340 5b ae 3d bb 93 c9 55 be bb 6f e2 bd 8c d9 9a 3d
       -0.0028943035 -0.20877676 -0.11056467 0.07561025
000350 f3 30 17 3e a4 85 f1 bc 12 5b 92 bd 60 4a 2e bd
       0.14764766 -0.02948267 -0.071462765 -0.0425514
000360 a4 30 b4 3c e4 e0 9e bd 33 11 75 be 99 dd de 3d
       0.02199585 -0.07757738 -0.23932342 0.1088211
000370 94 6b 3a be b3 6e 00 3e 62 2b 12 3e 34 7b 83 bd
       -0.182051 0.12542228 0.14274362 -0.064199835
000380 48 83 38 3d aa 0d fb 3d a0 1b b3 3d 7a da d1 3d
       0.045047075 0.122584656 0.087455034 0.10246749
000390 18 19 ab 3d 80 27 47 3b 48 04 ae bd 00 a6 9a bd
       0.08354396 0.0030388534 -0.0849691 -0.07551193
0003a0 9f 4d 00 3e b2 b9 03 be 20 63 f4 3b 30 2f df 3c
       0.1252961 -0.12863806 0.0074581057 0.02724418
0003b0 00 d9 60 3b 2a 03 d2 3d f2 c7 1b bd 70 fa 25 bd
       0.003430903 0.1025451 -0.03803248 -0.04052204
0003c0 a4 f9 e5 bd ae 88 8b be 5c 9d 16 3b ce 0d 37 be
       -0.11229256 -0.27252716 0.0022981977 -0.1787636
0003d0 62 6f 43 be c6 13 b2 3c 22 24 fb 3c 2d 35 9f 3d
       -0.19085458 0.021737944 0.030656878 0.07773814
0003e0 51 5a 64 bc 72 ae 00 3e 74 47 46 be ea a3 a4 bd
       -0.013937549 0.12566546 -0.19363195 -0.080390766
0003f0 5f 50 f1 bd 20 30 0a 3e f6 6d 5a be aa 1a 75 bb
       -0.11782908 0.1349492 -0.2133101 -0.0037399926

encoder.0.bias f4 [64]
000000 7e 9f 77 3d 40 66 69 3e 39 e7 e6 3d df e7 06 3e
       0.060454838 0.22792912 0.11274571 0.1317439
000010 96 77 3f 3e b7 51 a2 3d fc 93 2f 3e 84 51 f3 3d
       0.18697962 0.07925742 0.17146295 0.11880782
000020 a8 9b 1a 3d 14 13 81 3b 8a c5 2d 3e f6 7c 32 3e
       0.0377461 0.003939042 0.16969886 0.17430481
000030 f9 d1 62 3d a2 58 ac 3d 1a 96 4b 3d 44 31 74 3c
       0.055376027 0.08415343 0.049703695 0.014904324
000040 6a b4 20 3e 40 ed f2 3d e2 10 3d 3e bf 1f dd 3d
       0.15693823 0.11861658 0.18463472 0.10797071
000050 35 70 4c 3e c0 4a 08 3e 01 54 1b 3c 23 b0 28 3e
       0.19964679 0.13309765 0.009480477 0.16473441
000060 da 48 40 3e 4e c1 15 3e 4b c9 61 3e b8 ed d5 3d
       0.1877779 0.14624521 0.22049443 0.10445732
000070 59 61 63 3e 0d 23 00 3e 85 2a 9b 3d 5f ed 4d 3e
       0.22205104 0.12513371 0.07576469 0.20110081
000080 49 94 1f 3e c8 96 2a 3e 45 78 13 bd fe 78 8a 3d
       0.1558391 0.16659081 -0.03600337 0.06761359
000090 44 05 75 bc 2d 7e 45 3d 9b 1a a4 3d 37 74 d7 3d
       -0.014954869 0.048216034 0.08012887 0.10520213
0000a0 34 66 80 bc 7a e8 8f 3d 31 84 24 3d 96 61 0f 3e
       -0.015673734 0.07026763 0.04016513 0.1400207
0000b0 7f 39 14 3e 0c 89 1d 3e 43 27 2b 3e 1d 37 18 3e
       0.14475058 0.1538431 0.16714196 0.14864774
0000c0 19 ba 05 3e f9 bf 38 3e 97 1a 93 3d 92 d9 4b 3e
       0.13059272 0.18041982 0.07182806 0.19907215
0000d0 ee c6 37 3e d3 d8 d0 3d 38 ba d7 bc 5f 84 63 bd
       0.1794698 0.10197606 -0.026333913 -0.05554616
0000e0 94 6e 0e 3e 7e fd c6 3d 52 d2 50 3e 33 67 80 bd
       0.1390937 0.097163185 0.20392731 -0.06269684
0000f0 40 3c d8 3d b2 50 db 3d 5e b9 1c 3e 6c af 89 3d
       0.10558367 0.10708751 0.15305087 0.06722912

encoder.2.weight f4 [32, 64]
000000 a7 97 1c 3e 4c 23 d3 3d 23 6f 1d 3e c9 de 99 3d
       0.15292226 0.10309467 0.15374427 0.07513196
000010 21 88 a9 bc e5 68 08 3e d6 ea 3b 3e a7 32 f4 3c
       -0.020694794 0.13321264 0.18351302 0.02980931
000020 fc 89 23 3e 00 05 db 3d 2d fb 54 3e c8 14 19 3d
       0.15970606 0.10694313 0.20798941 0.037373334
000030 e2 35 f1 3d b4 09 ce 3d 1a b6 e6 3d 40 89 15 3e
       0.117778555 0.100604445 0.11265202 0.14603138
000040 ab 1a 2d 3e 9d 12 9f 3d 93 c7 ec bb e0 0a 15 3e
       0.16904704 0.07767222 -0.0072259395 0.1455493
000050 e6 b3 78 bc 05 b1 22 bd 9a b9 0e 3e 0e 2b 42 3d
       -0.01517961 -0.0397196 0.13937989 0.04740434
000060 e9 a1 0e 3e 7d 74 f4 3c ac e9 e5 3d 4d e4 28 3d
       0.13928951 0.029840702 0.1122621 0.04123335
000070 84 f1 42 3e b2 53 55 3d e5 17 fb 3d 57 5e 91 3d
       0.19037443 0.05208177 0.12260417 0.07098072
000080 27 a3 2f 3e 78 ec 76 3d f6 a6 e2 3d b2 05 23 3e
       0.17152081 0.060284108 0.110670015 0.15920141
000090 7d d6 70 3d ca 59 eb 3d 1d bb eb 3d 05 bf f6 3d
       0.058798302 0.11491735 0.115102984 0.12048153
0000a0 ae 0e 65 bd 55 6c c7 3d d0 0f 51 bd 50 76 a8 3d
       -0.055922203 0.097374596 -0.05104047 0.08225691
0000b0 0a f1 30 3d 33 09 cb 3d 21 4f 42 3e c3 94 28 bd
       0.043198623 0.09913864 0.18975498 -0.041157495
0000c0 fd 0e ea 3d 55 72 97 3d 4e f1 5c 3d 78 8e 0d 3e
       0.1142864 0.07394854 0.053941064 0.13823879
0000d0 5f 0b 64 3c 79 6b 8e 3d 45 6b 93 3b fc 34 88 ba
       0.013918727 0.069540925 0.0044988715 -0.0010391767
0000e0 25 7a a1 bb e9 e1 9e 3e 6f 2e 35 3e 73 69 2b be
       -0.004927891 0.3103173 0.17693494 -0.16739444
0000f0 e3 55 06 3d 5b 13 2d 3c d3 7b f5 3d c7 d2 38 3b
       0.03279675 0.010563697 0.11986508 0.0028201805
000100 df 52 c1 3d 09 1b 71 3d 6d 26 88 bc b0 34 2c bc
       0.094396345 0.058863673 -0.016619885 -0.010510609
000110 10 6a 1d 3e 1d a1 61 3e 7b 5b 01 3e 75 8d ee 3c
       0.15372491 0.22034116 0.12632553 0.029120186
000120 da 77 2b 3e 1a e0 4a 3e 1f 90 84 3d 53 60 5d 3e
       0.16744938 0.1981205 0.064728014 0.21618776
000130 ba ff dc bb e6 f8 6f 3d 94 b6 a0 bc d3 a6 4d 3e
       -0.006744352 0.058586977 -0.01961831 0.2008317
000140 cb 43 a7 3d 94 fa 4b 3e 71 09 d4 3d 61 1c 2f 3e
       0.08167227 0.19919807 0.10353363 0.1710067
000150 65 05 4a 3e 2b 63 3e 3e 6f 99 6b 3d 78 ad 4e 3e
       0.1972862 0.18592517 0.057519373 0.2018336
000160 77 30 e6 3d bb a1 e9 3b 7d 71 4f 3e f8 92 f3 3d
       0.11239713 0.0071298755 0.20258136 0.118932664
000170 e6 04 49 3d 05 a4 b0 3d 2f 03 c5 3d e7 f3 3e 3d
       0.049076937 0.08625034 0.09619748 0.046619322
000180 40 52 1f 3e ac 79 b4 3d 22 06 ab 3d ee c8 12 3e
       0.1555872 0.088122696 0.08350779 0.14334461
000190 ee 03 66 3c 24 ed 89 3d dd 17 08 bc cd e0 62 3e
       0.014039023 0.06734684 -0.008306471 0.22156067
0001a0 d0 69 38 3b 9b a3 30 3e 5f 79 29 3e 49 1c 2b 3d
       0.002813924 0.1724991 0.16550206 0.04177502
0001b0 e5 ed d6 3a 71 63 d3 3d 2c 97 96 3d cb 58 a5 3d
       0.0016397802 0.10321701 0.073530525 0.080735765
0001c0 41 1c 8b 3c bc 60 0f 3d c4 e3 3a 3e 51 cf 51 3d
       0.016981246 0.035004362 0.18250948 0.051223103
0001d0 f4 53 b4 3d 9b e2 6a 3c ca 06 23 3e 73 00 2a 3e
       0.08805075 0.0143362535 0.15920559 0.16601734
0001e0 70 16 aa 3c 87 44 39 3e 30 a1 62 3e 40 c6 27 3e
       0.020762652 0.18092547 0.221318 0.1638422
0001f0 bb d7 3b 3d 23 51 8a 3c 47 2f 9c bb 93 f2 29 3e
       0.045860033 0.016884392 -0.004766378 0.16596441
000200 34 e3 be 3d 9e 57 b0 3b fe 46 c0 3d ca 40 93 bb
       0.09320679 0.0053815385 0.09388541 -0.0044938074
000210 f2 9c da 3d 08 fa fb 3c 6a 84 65 3d 18 02 4c bc
       0.10674466 0.030758873 0.056034483 -0.012451671
000220 f3 91 ab 3d c4 e1 fa 3d a1 2d 0c 3e bd 80 49 3d
       0.08377447 0.122500926 0.13689281 0.04919504
000230 a4 de c1 3d 85 0c 4e 3d 11 08 8b 3d 63 08 07 3e
       0.094662935 0.05030491 0.06788648 0.13186793
000240 02 0a c6 3c 73 4c 87 3d 2f 76 7a 3d 6c 46 bd 3c
       0.024174694 0.066063784 0.061147865 0.023104869
000250 ac 7d 5e bd 01 98 67 bd 25 de d3 3c 11 94 a1 3d
       -0.05431907 -0.056541447 0.025862763 0.078895696
000260 2f 41 30 bd 6c 0e fc bc 7a 5c 2b 3e 22 cd 51 3d
       -0.043030914 -0.030768596 0.16734496 0.05122102
000270 fd f5 11 3e 86 42 98 3d 2e b2 5d 3e 48 f5 17 bd
       0.14253993 0.07434563 0.21650001 -0.037099153
000280 4a f2 12 3e ac fb ed 3d fb 04 34 ba 78 a1 9f 3d
       0.14350238 0.11620268 -0.0006867197 0.077944696
000290 aa c3 f4 3c 06 3f 4c 3e 6b 86 1c 3d e3 84 bc 3d
       0.029878456 0.19945917 0.03821413 0.09205034
0002a0 48 a4 15 ba 3d e5 d3 3d 59 46 02 3e c7 68 44 3e
       -0.0005708379 0.10346458 0.12722148 0.19180594
0002b0 48 96 46 3e 7a ad c4 3d a9 89 03 3e 04 29 c5 bd
       0.19393265 0.096034005 0.12845482 -0.09626964
0002c0 0e ce 5b 3d b1 7b 28 3e cc 80 2d 3e 85 4c 01 3e
       0.053663306 0.16453435 0.16943663 0.12626846
0002d0 2f 5a 5a 3d 27 32 62 3c 67 2a 31 3d 49 bb 72 3d
       0.053308662 0.013805903 0.04325333 0.05926064
0002e0 32 29 32 3e 5b 43 9c 3e 3f b0 11 3e 12 47 1f be
       0.17398527 0.30520138 0.14227389 -0.15554455
0002f0 3a 3a 54 3e 75 e5 07 3e 07 ad 53 3e 5c bd a4 3d
       0.20725337 0.13271125 0.20671473 0.0804393
000300 b7 21 d1 ba b8 2f ab 3d 2c 22 ab bc 6a f6 d3 bd
       -0.0015955482 0.08358711 -0.020890318 -0.10349734
000310 58 f0 31 3d b4 a2 d5 bd 25 3a e0 bd 59 07 9b bd
       0.0434421 -0.10431424 -0.1094859 -0.07569761
000320 6e c3 0f bd e3 df be bd df e8 be bd d0 20 0e be
       -0.035098486 -0.09320047 -0.093217604 -0.13879704
000330 5e 6d 12 be 74 6c b3 3d ed af 4d 3c c8 99 8f 3d
       -0.14299533 0.0876092 0.012554151 0.07011753
000340 19 f0 93 bc 9d f3 8f bd d3 c0 78 bd 25 3f 18 bb
       -0.018058823 -0.070288874 -0.060730767 -0.0023230996
000350 a8 df 52 3d 2c d2 a6 bc 78 3e b4 3d 59 e5 02 be
       0.051482826 -0.02036389 0.088009775 -0.12782802
000360 1a cc ca bd 2e 04 70 3d 73 99 cc 3d 8b 72 44 3d
       -0.099022105 0.058597736 0.099902056 0.0479608
000370 e4 3b b4 3d 19 b9 f7 bd 74 3c 0d 3c 61 2b bc 3d
       0.08800486 -0.120958515 0.00862037 0.09187961
000380 de 5c 00 be 66 e4 cb bc 54 05 a2 3d af f6 c1 3c
       -0.12535426 -0.024889182 0.079111725 0.023677198
000390 17 60 01 bb 31 a4 87 bd 7f f9 d2 3d 94 5d 33 bd
       -0.0019741112 -0.06623114 0.10301494 -0.043790415
0003a0 db 4f 44 3d bb a7 00 be f0 be ca bd af 7e a6 3d
       0.04792772 -0.12563984 -0.098997 0.08129632
0003b0 ca 80 5c 3b 93 bd 2f 3d 11 3a a0 bd 31 9a b6 bd
       0.00336461 0.0429054 -0.07823575 -0.089161284
0003c0 7e 67 3c bc bd 37 9d bd e7 e3 c0 bd 90 4f 8b bd
       -0.011499284 -0.07676647 -0.09418469 -0.06802285
0003d0 71 2c df bd 16 86 dd 3d 46 a2 e6 bd 87 42 36 3d
       -0.108971484 0.108165905 -0.1126142 0.04449704
0003e0 aa 0f a8 3d 9b f3 11 be 5c 91 ee 3c 54 7b 6d 3d
       0.08206113 -0.14253084 0.029122047 0.057978943
0003f0 a3 29 ba bd b5 5a 8a bd e7 a3 0a 3d 4f 94 f8 bd
       -0.09089973 -0.06755582 0.033847716 -0.121376626

encoder.2.bias f4 [32]
000000 29 a4 81 3d 34 8b 55 3e 31 19 22 3d 1c 33 1d bd
       0.06330139 0.20853883 0.039574806 -0.03837882
000010 f1 52 5a 3e bc 6d ed 3d a6 6c 27 3e 2c 27 d9 3d
       0.21320702 0.11593196 0.1635004 0.106031746
000020 22 15 81 bd bb ce 18 3d bb 5c cb bc 25 e6 23 3e
       -0.06302859 0.03730653 -0.02482449 0.16005762
000030 52 e3 4a 3c 84 6c 23 bc c4 2d 6f 3d 0b 4e b9 bd
       0.012383299 -0.009974603 0.058393255 -0.09048089
000040 b3 bb 37 3e bb 10 6e 3e c2 8e 81 3d 1e 61 ba 3d
       0.17942695 0.2324857 0.06326057 0.09100555
000050 d1 6a b5 bc 94 bb c8 3d 63 f0 48 3e 0f 16 0e 3e
       -0.02214566 0.09801403 0.1962295 0.13875602
000060 f8 88 f7 bd d1 a3 0f 3e 5b bc 52 3d 91 e5 3c bd
       -0.120866716 0.14027335 0.05144916 -0.04611737
000070 a4 ff d9 bc f0 db 1a bd 8d 92 16 3e 9e 74 2a 3e
       -0.026611157 -0.037807405 0.14704342 0.16646048

encoder.4.weight f4 [16, 32]
000000 59 aa 29 3e 17 29 5a 3e d2 68 56 3d 66 87 6e bd
       0.16568889 0.21304737 0.05234606 -0.058234595
000010 01 ff b0 be b0 e4 27 3f a7 60 ea 3e 64 5f f1 3e
       -0.34569553 0.65583324 0.45776865 0.4714309
000020 12 09 86 bc 55 a1 18 bf 52 1f 24 3f f5 d5 d5 bd
       -0.016361747 -0.59621173 0.6411029 -0.104412
000030 41 37 fa 3e 89 4e a4 bd 72 18 4a 3f be 4f b1 3d
       0.4887028 -0.08022792 0.7894355 0.08657788
000040 61 28 fc 3e cc 17 64 be 22 33 b5 3e ff aa d4 3e
       0.49249557 -0.22274703 0.35390574 0.4153671
000050 62 ff 88 bd e5 ad 05 3d 79 10 5d 3f b9 86 7c 3e
       -0.066893354 0.032636542 0.8635326 0.24660768
000060 3f b2 09 be f6 72 c4 3e 0d 10 bb 3e 50 99 0d be
       -0.13446902 0.38368958 0.36535683 -0.13828015
000070 bc ba a2 bd 23 ce be bd 32 9d c7 3e 35 41 c3 3e
       -0.07945773 -0.09316661 0.38987118 0.38135687
000080 01 08 6e 3d 2c f1 00 3e 93 f0 83 bd 95 b9 2f be
       0.058113102 0.12592 -0.0644237 -0.17160638
000090 6b ac 09 be a0 cd aa be 94 97 0a bf b2 17 e6 bd
       -0.13444678 -0.33360004 -0.5413754 -0.11234988
0000a0 4a bb 2c bf 51 75 1d 3f 8b 82 1f be c7 76 44 3e
       -0.6747328 0.61507136 -0.15577142 0.19185935
0000b0 14 0e 8f be e9 06 06 be c2 93 2a bf 1b bd 1d be
       -0.27940428 -0.13088574 -0.6663171 -0.1540417
0000c0 a7 76 33 bf 32 99 c9 3e b8 9e f2 be 48 02 6e be
       -0.70102924 0.3937469 -0.47386718 -0.23243058
0000d0 8b 22 f6 3d dc fd 7d 3e 16 8c c0 be 18 13 8d bc
       0.12018307 0.24803871 -0.37606877 -0.017221019
0000e0 3f 41 92 bd 5d b4 4e 3d a1 6b c6 be 9a 55 2a be
       -0.07141351 0.050464977 -0.3875399 -0.16634217
0000f0 97 64 65 3d 4a 59 f6 3d a2 89 2e be e2 f1 ce be
       0.056004133 0.12028749 -0.1704469 -0.40418917
000100 34 70 78 bd 16 a4 1f be 1f 4a 9e bd fe 29 df 3d
       -0.06065388 -0.15589938 -0.07728981 0.10896681
000110 6a 99 57 bd d6 d5 ba 3d 1f 6c 54 3b 55 50 0f be
       -0.05263654 0.09122817 0.0032413078 -0.13995488
000120 08 76 0a 3e 50 67 f3 bd 1e 93 32 be c5 d9 a5 3d
       0.13521588 -0.1188494 -0.17438933 0.08098177
000130 10 cb 13 be ba 58 e4 3d 8c 40 10 3d 1e bd 6e bd
       -0.14432931 0.11149736 0.035217807 -0.058285825
000140 73 2a fd 3d 61 b2 13 3e cf c2 0f be 5b df 1e 3e
       0.12361612 0.14423515 -0.14039157 0.15514891
000150 c8 75 06 3d ea df ce 3d 70 b2 92 3c e4 6a 28 be
       0.03282717 0.10101302 0.017907351 -0.16447026
000160 6c ef 6d 3d ad 1d 5b bd f0 c6 13 be 8e 51 79 bd
       0.05808966 -0.053495098 -0.14431357 -0.060868792
000170 e9 ba ef 3d 0a 23 30 be d8 ce 0e be 12 e2 2e be
       0.11705572 -0.17200866 -0.13946092 -0.17078426
000180 cd 19 a5 bd 48 35 00 be eb 24 33 3b 04 dd 31 be
       -0.08061562 -0.12520325 0.0027335237 -0.17369467
000190 0b e6 8b 3e 7c 64 2c 3d ee 01 fa 3d 62 a1 59 3d
       0.27323946 0.042088017 0.12207399 0.053132422
0001a0 2f b1 85 be 36 fa 9b 3d 3f 14 1e be b0 82 e4 be
       -0.26111743 0.07616083 -0.15437411 -0.44630957
0001b0 0c 5d 68 3d 76 f3 c5 3d 98 e9 86 be d7 b9 04 3e
       0.05672936 0.09665577 -0.26350093 0.12961517
0001c0 cc a0 c1 bd a4 ce da bd bb fc 64 bd c5 37 66 3e
       -0.09454498 -0.10683945 -0.055905085 0.22482212
0001d0 ba f2 dd bc 5d 66 c3 3b 83 30 99 3e 88 8e e5 bd
       -0.02709328 0.0059631304 0.29919824 -0.11208826
0001e0 e9 55 be 3d 37 0a e3 bc e1 dc 12 3d 8f ea 46 bd
       0.0929373 -0.027714832 0.035855178 -0.048563536
0001f0 98 da 35 be 46 7f 9f be a2 a1 11 3e 7d 53 09 3e
       -0.17759168 -0.3115179 0.14221814 0.13410755
000200 a3 14 2f be e0 c4 99 bd 83 79 91 bd ac fe 31 be
       -0.17097716 -0.07508254 -0.07103255 -0.17382306
000210 64 1c 19 be 33 59 a1 bd 25 da 05 be 68 74 ff 3c
       -0.14952236 -0.078783415 -0.13071497 0.031183437
000220 f4 91 14 bd 20 ff 29 bc e0 6a d6 3c d8 e5 e6 bc
       -0.036272004 -0.010375768 0.026174009 -0.02818577
000230 89 32 2c 3e 60 d1 45 bc c8 47 ff 3c 99 78 b0 bd
       0.16816153 -0.012073845 0.031162158 -0.08616752
000240 b5 8f 9a bd 3e c2 e5 3d 35 a7 17 be e0 c4 69 bd
       -0.07546941 0.112186894 -0.14809878 -0.05707252
000250 d0 16 9a bd 48 b9 4a 3d fa 0c 00 be 56 a9 96 3d
       -0.075238824 0.049493104 -0.1250495 0.07356517
000260 26 9c f5 3d a0 3f 90 bd 70 9a 0a 3d 6f c8 1b be
       0.119926736 -0.070433855 0.03383869 -0.15213178
000270 fe e2 ca bd 56 95 e7 3d c0 b1 7c bd 29 5d 08 be
       -0.099065766 0.113077804 -0.061692953 -0.13316788
000280 e8 64 c8 bc c7 d7 ce bd 98 1a a4 bd 4e 78 af bc
       -0.024462178 -0.1009975 -0.08012885 -0.02141967
000290 68 40 81 bd 09 2f f7 3d ba 04 ba 3d f3 28 01 3e
       -0.06311113 0.12069518 0.09082933 0.12613277
0002a0 62 c1 0a be 2e 90 00 3e 58 de a7 3c be 12 04 3d
       -0.13550332 0.12555 0.020491764 0.032244436
0002b0 10 c8 98 3d 00 40 8e b7 2c 72 94 3b ef 53 0a be
       0.07460034 -1.6957521e-05 0.004530212 -0.1350858
0002c0 48 83 9f 3d 61 b0 9e bb 50 e2 35 be fa ce 64 3d
       0.07788712 -0.0048428033 -0.17762113 0.05586145
0002d0 35 61 06 be c7 dc 26 3d e0 ff 08 be 68 c2 29 be
       -0.13123019 0.040737893 -0.13378859 -0.16578066
0002e0 58 46 ea bd 4b 29 ad bc 32 69 33 bc 00 c6 c1 bb
       -0.11439198 -0.021137854 -0.0109503735 -0.005913496
0002f0 5a ee be 3c c3 78 33 3b 5e a8 c2 bc 61 cb 28 3d
       0.023307014 0.0027385212 -0.023761924 0.041209582
000300 fe eb 38 3e e8 50 47 3d b2 02 26 3a a0 da f1 3d
       0.18058774 0.048661143 0.0006332799 0.118092775
000310 f5 a0 28 be b9 49 8f 3d 53 b2 24 3e c1 39 20 3e
       -0.1646765 0.06996483 0.1608365 0.15647031
000320 d1 91 b0 bd 0c 9e 9a 3e 39 9f 34 3e ff 15 9c 3e
       -0.08621562 0.30198705 0.17638864 0.30485532
000330 95 c6 8a 3c 4d 5d 96 3d ad 6e 3c 3e c0 21 5c bd
       0.016940394 0.073420145 0.18401594 -0.053743124
000340 6c a8 c3 3d 3b 9f 25 3f b0 50 87 3d 90 19 26 3e
       0.09553608 0.6469609 0.06607187 0.16220689
000350 0b 49 a5 bd f5 cb 02 3e b7 69 42 be 2d df cb 3d
       -0.080705725 0.12773116 -0.1898564 0.09954677
000360 cd 92 22 3e d7 15 90 3d 58 b9 22 3e 4a 2e c4 3c
       0.15876313 0.070354156 0.15891016 0.023947854
000370 f6 3b 87 3e b6 7b 07 bd cf 17 f7 bb ea 10 2f 3e
       0.26412934 -0.033076964 -0.00754068 0.17096296
000380 5b 2c 6f 3c 4f e8 30 3e 84 f4 38 3e ba 9d a2 bd
       0.0145979775 0.17276119 0.18062025 -0.0794024
000390 cb 48 03 3d 0e 2e ca 3d c9 f9 90 3d 30 1c 6e 3e
       0.032051843 0.098720655 0.07078893 0.2325294
0003a0 9c c1 b4 be 73 d2 f0 3d a7 31 5e 3e c1 b5 fb 3e
       -0.35303962 0.1175889 0.21698628 0.49162105
0003b0 6e dd 33 3e f7 bc dd 3d bc 3d 70 3e 68 9e 05 be
       0.17564937 0.10827058 0.2346105 -0.13048708
0003c0 2a 15 18 3e ee a3 f3 3e 63 d8 af 3d a4 35 b1 3d
       0.14851823 0.47586006 0.08586194 0.08652809
0003d0 91 53 a6 bd 36 30 1b 3e da 4c 23 3e 39 76 52 3e
       -0.08121408 0.1515511 0.15947285 0.20552911
0003e0 c9 8c 08 3b 85 c3 27 3e 91 6b 88 3e 4f 13 9a bd
       0.0020835868 0.16383179 0.26644567 -0.07523214
0003f0 bb 24 68 3e a4 ee 82 3e 6d 41 6d 3e 84 2a 24 3e
       0.22670262 0.25572693 0.23169489 0.16031843

encoder.4.bias f4 [16]
000000 d9 e2 97 be 57 04 99 3d 2d e0 f7 bd 6b 9c e9 3d
       -0.2966526 0.07471531 -0.12103305 0.114067875
000010 71 cf b8 bd 38 ba c7 bd 03 2d 36 3d e6 da 1a 3e
       -0.09023941 -0.09752315 0.04447652 0.15122566
000020 d3 ae b2 3d 44 16 39 bd 1b 02 a1 3c 18 b8 39 bd
       0.08724751 -0.04518725 0.019654324 -0.04534158
000030 7d 72 ef 3c e9 a1 d4 3d 16 b2 81 3e 30 8d 20 3e
       0.029229397 0.103824444 0.2533118 0.15678859

decoder.0.weight f4 [32, 16]
000000 25 5f 93 3e 9f 2c 69 bd 10 c1 67 3e 4d 34 0d 3e
       0.28783527 -0.05692732 0.22632241 0.13789482
000010 f0 38 6c be 27 a7 84 bd d9 f6 eb 3d c5 a6 49 3e
       -0.23068595 -0.06477194 0.11521692 0.19692524
000020 7f 54 93 bd 6e e7 7c 3e 1c 02 b6 bd ac 4f 95 3d
       -0.07193851 0.24697658 -0.08887121 0.07290587
000030 30 5d 79 bd 30 a5 0a 3e da 89 0a be 2c 99 5f 3e
       -0.060879886 0.13539577 -0.13529149 0.21835774
000040 58 64 37 3f e4 cd d9 3c 30 3b 2b 3d a1 0c 7b 3e
       0.7163749 0.026587434 0.041804492 0.24516536
000050 fe 34 71 3e eb f6 37 be a6 fb fb bd 81 37 ac 3e
       0.23555371 -0.17965285 -0.123038575 0.33636096
000060 33 00 93 bd 18 b5 23 3e 4d f1 66 bc 60 fc 34 3e
       -0.071777724 0.1598705 -0.0140956165 0.17674398
000070 b4 f2 c6 bd a6 19 94 3d b7 87 67 3e 50 70 8c 3e
       -0.09714261 0.072314546 0.22610365 0.27429438
000080 d2 9e f1 3e 2e 57 25 bf aa b1 ed bd 3a c3 e8 bd
       0.47191483 -0.6458615 -0.11606152 -0.113653615
000090 a8 d2 61 bd 22 20 fc 3d b9 5c cd bc 16 e9 b7 3d
       -0.055132538 0.12310816 -0.025068628 0.089800045
0000a0 83 62 05 ba 54 dd a9 3c 87 02 40 3e 62 51 24 3e
       -0.0005088227 0.02073542 0.18750964 0.1604667
0000b0 c0 17 9b 3e 25 80 44 3e b2 ea 91 3e 5e 12 ef 3d
       0.30291557 0.19189508 0.2849937 0.11673425
0000c0 10 6a 6f bd d6 04 f0 bd b4 d0 c7 bd d2 72 c2 3d
       -0.05845076 -0.117196724 -0.09756604 0.094945565
0000d0 d2 63 3e be 58 88 d5 3d 1c 52 50 be 75 52 1a 3e
       -0.18592766 0.10426396 -0.20343822 0.15070517
0000e0 10 4a fc bd b9 f3 2a 3c 32 1d 84 be 90 8e 9b 3c
       -0.12318814 0.010434085 -0.25803524 0.018988878
0000f0 4e 0e 68 be 1a 3c 5f be 67 d3 ae bd 3f 45 89 3d
       -0.22661707 -0.2180027 -0.085364155 0.06702661
000100 b2 9c 6e 3f a0 7d 81 3e e8 e3 73 bd 65 31 a1 bd
       0.9320785 0.25291157 -0.05954352 -0.078707494
000110 4c 7e 01 be 28 ac 54 be 24 9b cb bd f1 15 81 3e
       -0.12645835 -0.20768797 -0.099417 0.25212052
000120 a3 02 96 bd 3b 76 16 3e 85 94 54 3c da 39 59 3e
       -0.07324722 0.14693539 0.012974863 0.21213475
000130 ec 41 09 be b2 81 c3 bd a6 c5 a3 3e 87 f8 5b bd
       -0.13404053 -0.09546222 0.3198673 -0.05370381
000140 ab d8 fc bd 5e 67 7a 3d d6 2f f0 3d 26 24 65 3d
       -0.12346014 0.061133735 0.11727874 0.055942677
000150 ae 45 08 be f3 b0 41 3e c9 2e 86 3e a1 ae 84 3e
       -0.1330783 0.18915157 0.2620757 0.2591448
000160 4a 2d 11 3e 28 14 85 bd 14 01 39 3e ac 09 ef 3d
       0.14177433 -0.06497985 0.18066818 0.11671767
000170 cf 11 98 3e e8 3e e0 bd 38 fd aa bd 5b 2d 2f 3e
       0.29701087 -0.109494984 -0.08349079 0.17107145
000180 70 0d 82 bd 0c 61 d9 3d 5c 9c 41 be 06 d6 4b be
       -0.06350219 0.10614213 -0.18907303 -0.19905862
000190 9c 45 3a be 70 7f 7c be 93 89 dc bc d0 57 1e 3e
       -0.18190616 -0.24657989 -0.02692107 0.15463185
0001a0 8c a6 c8 bd 20 23 ab bc 77 7b 51 be 48 dd 46 bd
       -0.09797391 -0.020890772 -0.20457254 -0.048550874
0001b0 2b 58 8a bd 35 7d 7e 3d de 45 15 be bd 69 01 3e
       -0.06755098 0.062131125 -0.14577433 0.12637992
0001c0 ee 90 60 be 64 b9 c6 bd ac 68 8f 3d d6 81 72 3e
       -0.21930286 -0.09703329 0.070023865 0.23682341
0001d0 e0 a5 a2 3d c0 ef 79 3d 84 43 59 3e 30 df 55 be
       0.079417944 0.06101966 0.21217161 -0.2088592
0001e0 20 f4 51 be f0 4e c1 3c ae 5e 32 be b8 a5 06 3e
       -0.20503283 0.02359721 -0.1741893 0.13149154
0001f0 be 90 34 be f6 b6 27 be 38 c6 a3 3d 60 4f 75 3c
       -0.1763334 -0.16378388 0.079967916 0.014972538
000200 50 76 2f 3f 70 7a 03 bf f5 1e 74 3d f3 ca 82 3d
       0.68539906 -0.513587 0.059599835 0.06386366
000210 f0 5b d2 bc 24 7d 05 be c2 86 cb 3d 10 69 3b 3e
       -0.025678605 -0.13036019 0.099378124 0.18301797
000220 d2 61 b9 3d 68 57 59 bb 4c 64 66 3e 08 0e 11 bd
       0.09051861 -0.003316367 0.22499198 -0.035413772
000230 47 25 9f 3e a1 1b 99 3e e4 59 87 3d 13 dd 06 be
       0.31083128 0.29903892 0.06608942 -0.1317027
000240 a3 99 f0 3e d4 b9 15 3e f7 de cc 3d 94 54 aa bd
       0.46992216 0.14621669 0.10003465 -0.08316913
000250 4e 8d 17 3e cb fe a9 3d f3 51 7d bd 7c 96 de 3d
       0.14799997 0.08300551 -0.06184573 0.10868546
000260 bf b7 4b be 01 61 1a be cd 3b 8c bb b0 61 79 3d
       -0.19894312 -0.15076067 -0.0042795897 0.060884178
000270 a0 43 d2 ba 1d 82 08 be 50 37 5b 3e 4e 29 fd bc
       -0.0016041882 -0.13330884 0.21407819 -0.030903485
000280 0b c0 0c 3f 51 b3 89 be 35 0a 6d bd b7 71 17 be
       0.54980534 -0.2689462 -0.057871062 -0.14789473
000290 40 2d 7b 3e 7b 1d 62 bc 1f 89 84 3e 7f 73 25 bd
       0.2452898 -0.013800974 0.25885865 -0.04039335
0002a0 2c c7 e3 3d e1 3d c9 bd c3 b5 86 3d 78 66 34 be
       0.111219734 -0.098262556 0.06577637 -0.17617214
0002b0 3e c8 92 3d 81 db 8c 3e ed e7 ae 3e dc 7a da bd
       0.071670994 0.27511218 0.3416132 -0.10667965
0002c0 2c 6a 00 3f d1 ac af be 30 a6 86 3c ca cc c4 be
       0.50162005 -0.34311536 0.016436666 -0.38437492
0002d0 74 7d 49 3e 56 6b 12 bc 36 f6 2b be 3f 4b 15 3e
       0.19676763 -0.008936724 -0.16793141 0.14579485
0002e0 fa c6 1c be 02 db 22 bd c3 a9 17 bd 60 3e 64 bd
       -0.15310279 -0.039759643 -0.03702713 -0.055723548
0002f0 b6 34 d4 3d 3e cb 57 3e 17 10 8c 3b 8b 07 32 be
       0.10361616 0.21073624 0.004274379 -0.1738569
000300 1d 74 48 3e 60 91 04 3f 16 ad 43 bd ee 88 f7 3d
       0.19575544 0.51784325 -0.04777249 0.12086664
000310 18 1e 99 bd 32 58 92 bc 2a 04 95 3d 94 2d 45 3e
       -0.07476443 -0.01786432 0.07276185 0.19255668
000320 24 d1 c6 3d d4 9a 80 3d 6b 1a 57 3e 00 48 40 bc
       0.09707859 0.06279531 0.21006171 -0.011735916
000330 d7 6b 24 be b2 35 6e 3e 1f 28 22 be 09 2c b3 3d
       -0.16056763 0.2326267 -0.15835617 0.087486334
000340 1b 41 2a 3e d6 5a 42 3e a0 fe 3d be 8b 51 69 be
       0.16626398 0.18979964 -0.18554163 -0.22785012
000350 40 cd 89 bb 94 48 b2 bd b6 ac 75 be 86 bd 35 be
       -0.004205376 -0.087052494 -0.23991665 -0.17748079
000360 28 17 d6 3d c6 67 42 3e 24 58 00 3e 5c 32 2a be
       0.104536355 0.18984899 0.12533623 -0.16620773
000370 1e e2 61 be 90 6d 4d be d4 de 0c be a6 70 30 be
       -0.22058913 -0.20061326 -0.13756877 -0.17230472
000380 5a 17 43 be 38 9d f2 bd 00 d1 b8 3d c4 3c 8c bd
       -0.19051877 -0.11846393 0.090242386 -0.068475276
000390 9a c6 67 be b6 9f 92 39 7d b0 18 39 69 9c 27 be
       -0.22634354 0.00027966284 0.00014561597 -0.1636826
0003a0 0a 48 95 3c 4b 4f 94 3c d0 7c 4e 3c 58 0b 79 3d
       0.018222827 0.018104216 0.012603 0.060801834
0003b0 fc 94 0f 3e 40 f4 5d be 1c 35 6e be 1e 58 e5 3d
       0.14021677 -0.21675205 -0.23262447 0.11198448
0003c0 14 dd 0e 3f d0 fa 42 3e 4d 0e 65 be e6 5e 36 3e
       0.5580609 0.1904099 -0.22368737 0.17809638
0003d0 c4 b0 51 be ef ad 5e be 63 73 4c bd 91 2d 1a 3e
       -0.20477587 -0.21746038 -0.04991473 0.15056445
0003e0 bf 26 fd 3d 62 5f f9 bd be 68 2a be d8 7c 0d 3e
       0.12360906 -0.12176396 -0.16641518 0.13817155
0003f0 ff ff b6 bc 6d af 50 3e d2 17 8a 3e 88 76 96 3d
       -0.022338865 0.2037942 0.26971298 0.07346827

decoder.0.bias f4 [32]
000000 10 21 a7 3e 1b 85 86 3c fa 7f 4e 3e 44 21 07 bd
       0.32642412 0.016420892 0.20166007 -0.03299071
000010 e2 7d ce 3d 63 f0 1f 3e 0b 4d 14 be 8c d8 14 be
       0.10082604 0.15619044 -0.14482515 -0.14535731
000020 3e 8c dc 3d d7 74 e6 3d 82 fb d1 3d b7 ee e6 3d
       0.107689366 0.11252754 0.102530494 0.11276
000030 1e 95 98 3e a8 81 60 be 4b 9e 4e 3e 71 d5 fe bc
       0.29801267 -0.2192446 0.20177571 -0.031107636
000040 7c 26 6d bd a0 8f 28 bc f9 e5 44 3d b9 07 cf 3c
       -0.05789803 -0.010288149 0.04807088 0.025272237
000050 a4 53 93 be 2a c2 6b 3e bf 2b d7 be ba 6f 14 be
       -0.2877475 0.23023286 -0.42025563 -0.14495745
000060 d0 25 e2 3d 82 6d 73 3e ba 63 29 3c 12 41 c4 be
       0.110423684 0.23772243 0.010338718 -0.38330895
000070 fe 95 23 be a3 44 a2 3e d2 15 97 3e 26 94 c8 bd
       -0.15975186 0.3169299 0.29508835 -0.09793882

decoder.2.weight f4 [64, 32]
000000 8d 8e b1 bd 4a 2c a1 bd 62 dc 1b be 67 b8 07 3e
       -0.086697675 -0.078697756 -0.15220788 0.13253938
000010 62 db 5b bd b6 4e 8f bd 00 b9 92 3b 1d cf 18 3e
       -0.053676017 -0.06997435 0.00447762 0.14922757
000020 df 91 96 3d b4 cf 17 bd a7 9f 02 3b 9a 7e 13 3e
       0.073520415 -0.037063316 0.0019931586 0.14403763
000030 99 6d a1 bd d6 ad ae 3d 74 70 86 3d b9 fd 85 3d
       -0.07882232 0.0852925 0.065644175 0.065425344
000040 3e 0f 05 be 1a e8 ad 3d aa e2 66 3b fe ad a6 3d
       -0.12994096 0.084915355 0.0035230317 0.08138655
000050 3e 56 b1 3d 2f 9b c2 bc 3b bc 07 3e fc b8 b4 3d
       0.086590275 -0.023755638 0.13255398 0.088243455
000060 dd 92 d4 3b 3a 04 e2 bd 0d 82 0e 3e 92 d3 33 be
       0.006487234 -0.110359624 0.13916798 -0.17561176
000070 a6 15 2f be f8 ef b3 bd e1 e9 e1 3d ba 8c 8b 3d
       -0.17098102 -0.08786005 0.11030937 0.06813951
000080 19 06 59 3e 02 fc 39 3e d1 f4 54 3e bb 81 0a 3e
       0.21193732 0.1816254 0.20796515 0.13526051
000090 1f 14 9c 3d 73 02 45 3e dc 43 9b ba d2 f1 de 3d
       0.07621025 0.19239216 -0.0011845785 0.10885967
0000a0 39 f0 19 3e 4d 60 1f 3e 33 26 61 3d 49 ad 4c bd
       0.15033044 0.1556408 0.05496807 -0.049969945
0000b0 5d 7a 1e bd 95 2c a1 bd c6 a8 3d 3e 23 64 2d bd
       -0.038690913 -0.078698315 0.18521413 -0.042331826
0000c0 a3 ca aa bd a8 9f 73 3d 04 4b 3a 3e d8 fe cb 3d
       -0.08339431 0.059478432 0.18192679 0.09960717
0000d0 6e 28 d6 3d 4e 4b d7 be bc f3 cc 3e cd 59 9a bd
       0.1045693 -0.4204964 0.40029705 -0.075366594
0000e0 1e 0d 5c 3e 87 41 a1 3d a1 93 75 bd 7c 94 09 3f
       0.21489379 0.078738265 -0.059955243 0.53742194
0000f0 7e d2 e6 bd 05 e6 6a 3e 94 6c 4e 3d 31 ac 8d bd
       -0.11270617 0.22939308 0.050396517 -0.069176085
000100 90 47 6a 3d 4b d7 47 3d d3 e5 89 3d 19 47 37 bd
       0.057197154 0.048789304 0.067332886 -0.04474554
000110 61 db 9d 3c 4e d4 69 3d ee b1 03 3d 52 c1 ca 3d
       0.019269647 0.057087235 0.03215211 0.09900154
000120 59 f0 68 3e 3e db 86 3c 67 3f 68 3e 82 c7 6d 3e
       0.22747935 0.016461965 0.22680436 0.23220637
000130 27 c9 46 3e 82 70 f9 3d 55 05 a3 bd 4a 30 50 bd
       0.19412671 0.12179662 -0.079600014 -0.050827302
000140 fb 6a 6a 3e a8 ad 96 bd 9d 1e 55 3d da e7 e8 bd
       0.22892372 -0.07357341 0.05203115 -0.11372347
000150 27 a7 1a 3e 70 5f 12 3e e2 16 b6 3e 91 a1 3f 3e
       0.15102826 0.14294219 0.35564333 0.18713976
000160 24 b5 c7 3d 9b d8 51 3e 5f 3e 5f 3d 16 26 81 3e
       0.09751347 0.20492785 0.05450284 0.2522437
000170 02 0e a2 bd 67 93 da bd 5a 25 eb 3d 8c 4e a7 3c
       -0.07912828 -0.10672646 0.114817336 0.020423196
000180 60 cf 25 be 08 30 31 3e 5c a6 0d 3d 30 da 74 bc
       -0.16192389 0.17303479 0.03458248 -0.014944598
000190 c1 fb 21 3e c2 fa 45 3e e2 4f cf 3c 0c 04 6c 3d
       0.15818693 0.19333938 0.025306646 0.057621047
0001a0 d2 25 c1 3d 86 21 d1 3d c5 04 64 39 68 ce 01 bd
       0.09431042 0.10211472 0.00021745551 -0.031690985
0001b0 25 2c 40 bd 65 02 f7 3d f6 8a ad 3d 75 0c 2b bd
       -0.0469171 0.120610036 0.0847377 -0.041759927
0001c0 0e 26 63 3c f8 31 30 be 4d 6f 49 3e da 65 88 3e
       0.013864053 -0.17206562 0.19671364 0.26640207
0001d0 d9 61 16 3f 1f 76 53 bd fc 43 26 3f 6a e1 26 3e
       0.58743054 -0.05162632 0.64947486 0.16296926
0001e0 38 42 d4 bd 10 a7 05 3e fa 8c 81 bc b7 c1 da 3e
       -0.10364193 0.1305201 -0.015814293 0.42725918
0001f0 7a 47 1c be 30 f6 b7 bd 3c 74 dc bd 98 c1 bd bd
       -0.15261641 -0.089825034 -0.107643574 -0.09265441
000200 b5 ff aa 3d a8 89 b8 3c c9 9b b9 bd 32 f3 f3 bd
       0.083495535 0.022526577 -0.09062917 -0.1191162
000210 a7 99 e6 bd c1 82 78 3e bc 08 35 bd b2 6e e2 3d
       -0.112597756 0.24268629 -0.044197783 0.1105627
000220 36 f5 21 be 8b 22 2c 3d b1 4c 2e bd 13 6d ca bc
       -0.15816197 0.04202513 -0.042553607 -0.024710214
000230 19 a4 fb 3d b3 4f 08 be 0d 5c 09 be 6e 0a 9a bc
       0.122871585 -0.13311653 -0.13414021 -0.018803801
000240 46 38 86 bd a4 22 53 bd 23 ac a0 3d ff 06 26 3e
       -0.06553702 -0.051546708 0.078453325 0.16213606
000250 b9 db 78 3e a8 dc 81 be 76 fb 9e 3e e0 4b c3 3e
       0.24302568 -0.2536366 0.31051224 0.38143826
000260 d1 ea 37 be e1 9d 41 bc d6 a8 07 3e 6d fd 00 3f
       -0.17960669 -0.011817426 0.13248 0.503867
000270 8a 91 bc 3d 01 aa b4 bd ab ea 54 3d f8 36 8a 3d
       0.09207447 -0.08821488 0.05198161 0.06748766
000280 9c fc 33 bd 98 da 30 bd d7 f4 20 be f2 96 e1 3d
       -0.04394208 -0.043177217 -0.15718399 0.11015119
000290 e0 c2 aa 3b 4c 7c 40 bd 9a 2d 64 bd 36 63 b0 3d
       0.005211219 -0.04699354 -0.05570755 0.08612673
0002a0 3d da 1a be 30 dd 1d bc f8 b0 8a 3d 4b a0 15 be
       -0.15122314 -0.009635255 0.06772035 -0.14611928
0002b0 70 a9 62 3c c0 8c a4 3c 96 a9 10 be ee 67 17 be
       0.013834342 0.020086646 -0.14127192 -0.1478574
0002c0 80 99 84 3c 68 59 15 be e0 74 40 bc 82 dd c0 bd
       0.016186476 -0.14584887 -0.011746615 -0.09417249
0002d0 08 8c 12 bd 8f e3 1c be b2 2d a0 bd 24 04 11 be
       -0.035778075 -0.15321182 -0.07821216 -0.14161736
0002e0 62 73 6d bd 9a b0 e7 bd 18 06 32 bd 8b 4f 27 3e
       -0.057971366 -0.11312981 -0.043462843 0.16338937
0002f0 f0 0b fd bd 59 b3 c2 bd 12 52 98 3d e9 a3 b6 bd
       -0.123557925 -0.09506864 0.07437529 -0.08917982
000300 4e d8 b5 3c 12 1c 3e be 17 18 85 bc 14 f1 5f bd
       0.022197869 -0.18565395 -0.016246838 -0.05467327
000310 b0 e0 d1 bc cf b5 f9 bd ea 42 da 3d eb 66 d0 bd
       -0.025619835 -0.1219288 0.10657294 -0.1017588
000320 0a df af 3d 41 89 21 3d 80 d1 be 3d 4a cf 3f be
       0.08587463 0.039437536 0.09317303 -0.18731418
000330 2c ec 92 3d 7a 0b bb 3d ea be 9e 3d 79 38 e5 bd
       0.071739525 0.09133048 0.07751258 -0.11192412
000340 4b 30 a8 3d c0 3c 62 3c 46 49 34 be a2 60 ee 3d
       0.08212336 0.013808429 -0.17606077 0.11639525
000350 97 be f9 3d 0e 51 f3 3d 0e 32 85 bd fb 16 ae bd
       0.12194555 0.11880694 -0.06503688 -0.08500477
000360 6f ad 85 bd 69 0f d7 3c bb 99 be 3c be 2b 17 be
       -0.065272205 0.026252465 0.023266664 -0.1476278
000370 d6 2a a4 bd 3c 42 3c be 03 51 03 3e e0 6a 59 3c
       -0.08015983 -0.18384641 0.12823872 0.01327011
000380 cc 4e b2 3d 42 ba 35 bd cd b2 63 3e 28 d4 d5 bd
       0.087064356 -0.044367082 0.22236176 -0.10440856
000390 19 dd a1 bd 1d 1b a3 bd cc 5e 68 3d c3 8e b4 bd
       -0.07903499 -0.07964156 0.05673103 -0.08816292
0003a0 78 fd 24 3e 6e 3f b7 bd 57 52 ee 3d 24 57 06 3e
       0.16112316 -0.08947645 0.11636799 0.13119179
0003b0 4b c7 e0 3d 37 a7 13 be 11 b0 38 b9 be c9 17 3e
       0.10975512 -0.14419256 -0.00017613197 0.14823052
0003c0 69 ec 35 3e 52 ca f6 bd 12 c8 63 3e c8 33 ee 3d
       0.17765965 -0.12050308 0.2224429 0.1163097
0003d0 76 8c 29 be 39 19 80 3d bf d8 a9 3e 24 b3 26 3e
       -0.16557488 0.06254811 0.33173177 0.16279274
0003e0 ee 57 4c bd fb 7a 17 3c f0 25 7a bc 9f 2b c0 3c
       -0.049888544 0.009245629 -0.015267834 0.0234583
0003f0 b8 1e da bd 29 4f 80 bc 48 43 d6 3d a8 b8 e9 bc
       -0.106503904 -0.015662747 0.10462052 -0.028530434

decoder.2.bias f4 [64]
000000 6a 7a 24 be 54 c8 6b 3d d4 e3 48 3e 4f c5 7f be
       -0.16062322 0.057564095 0.1961816 -0.24977611
000010 75 6c f7 be 5e d4 5c bd fc b0 01 be cb 7a fc 3d
       -0.48324934 -0.053913467 -0.1266517 0.123281084
000020 87 29 4a 3e 68 bb 36 bd 74 48 2d 3e e0 63 00 be
       0.19742404 -0.04461232 0.1692217 -0.125381
000030 7a b5 b6 3d 61 7c 1f 3e 85 48 bb bd f6 4e fe 3d
       0.08921333 0.1557479 -0.091446914 0.12417404
000040 c2 3b 2b 3d c7 f4 09 3e 12 33 36 3e cb e0 74 3e
       0.041805036 0.13472281 0.1779292 0.23913877
000050 63 fa c3 bd 66 8f c5 bd 6e 75 d9 3d a9 c7 5e 3e
       -0.09569242 -0.09646492 0.10618101 0.21755852
000060 3b 01 dc bd d0 ab 35 3e 7a 40 c2 bd f5 21 13 3e
       -0.10742422 0.17741323 -0.09484954 0.14368422
000070 10 91 08 bc 6c 12 45 3e 16 a0 60 3a e6 c7 3d bd
       -0.008335367 0.19245309 0.00085687765 -0.046333216
000080 29 6f f1 ba 21 32 eb 3c 2e 2e 16 3e 8f 6a e7 3d
       -0.0018419969 0.028710427 0.14666054 0.11299621
000090 e4 d0 35 bd 5b b3 11 be be bf 21 3e fe 85 16 3e
       -0.044388667 -0.14228575 0.157958 0.14699551
0000a0 be 1d 16 3e 93 4c 6f 3e 95 79 60 3e 56 3a 21 3e
       0.14659783 0.23369054 0.2192138 0.1574491
0000b0 37 23 54 3e d0 31 4f 3e aa 32 21 be aa 48 6b bb
       0.20716558 0.20233846 -0.15741983 -0.0035901465
0000c0 48 77 f8 3d ee f4 a7 3d 24 67 5e 3e 83 d8 17 3e
       0.12132126 0.082010135 0.21719033 0.14828686
0000d0 c2 8d 55 3d 99 17 2f 3e e2 07 27 3e 98 5f 38 3e
       0.052137144 0.17098846 0.16311601 0.18005216
0000e0 88 d2 fb 3d 07 77 30 3e 68 79 98 3e ff 3c 4c be
       0.12296015 0.17232905 0.29780126 -0.19945143
0000f0 0e 36 43 3e 24 36 1d 3c bf 2f 5f bf 3d 96 28 3d
       0.19063589 0.009595428 -0.8718223 0.041158903

decoder.4.weight f4 [60, 64]
000000 58 36 95 bd 60 3c 59 bd 4e f1 26 3d fa 62 4b be
       -0.07285756 -0.053036094 0.04075747 -0.19861975
000010 05 e4 cb bd d4 72 e2 bd 1d 71 c3 bd 74 88 91 3d
       -0.09955601 -0.11057058 -0.09543059 0.071061045
000020 3a e4 bc 3d c8 ec cb 3d 0f 39 2d 3d c0 8d ad bb
       0.09223218 0.09957272 0.042290743 -0.005296439
000030 26 35 03 bd 7b a7 8f 3c 55 a6 fc bd 82 10 d0 3d
       -0.03203311 0.017535916 -0.12336413 0.101593986
000040 ed f8 cb be 2b aa 08 bd 95 d4 b1 bd 06 60 ef 3f
       -0.39838353 -0.03336541 -0.08683125 1.8701179
000050 f0 1f 7f bd d3 6a a1 be 48 33 36 be 6a 4e 1f bd
       -0.062286317 -0.31526813 -0.17793 -0.03889314
000060 af 16 7c 3d 38 4e bc bd 58 9e 28 3d 06 29 c7 bd
       0.06154507 -0.091946065 0.041166633 -0.097246215
000070 7c 55 a4 3d 74 db f5 3d 8f 16 18 be 3e 56 b8 3d
       0.08024117 0.12004748 -0.14852355 0.090008244
000080 06 96 6e 3e 01 31 f9 bc bb 55 06 be 6a da 3e be
       0.23299417 -0.030418875 -0.13118641 -0.18638006
000090 c6 bf c1 bd db 7d 49 3d 11 e5 df bd e4 bc 61 3e
       -0.09460406 0.04919229 -0.10932363 0.22044712
0000a0 f1 d6 2b 3e aa 71 04 3e 78 d6 eb 3d 29 da af bd
       0.16781212 0.12933984 0.11515516 -0.085865326
0000b0 b8 ea 34 bd 27 a4 5a 3d 48 b7 88 bc 42 2a c6 bd
       -0.044169158 0.053379204 -0.016688958 -0.09676029
0000c0 4c bc 26 3e fd ce fd 3d 92 62 cc bd 3b d6 1d bc
       0.16282767 0.123929955 -0.09979738 -0.009633596
0000d0 e3 6b d1 bd e1 3d 10 3e 60 d2 68 be dd de 64 bd
       -0.10225656 0.14086105 -0.22736502 -0.0558766
0000e0 f2 09 93 3e b0 8c 24 be cb d0 fd 3e 4d 79 1f be
       0.28718525 -0.16069293 0.4957336 -0.15573616
0000f0 fe ed 2f 3e fd e3 35 3c d0 18 72 be 6c 07 73 3e
       0.1718063 0.01110172 -0.23642278 0.237333
000100 ad ca cd 39 d9 eb 5e bd af 35 4b bd db cd 00 3e
       0.00039251652 -0.05442414 -0.049611744 0.12578528
000110 ac af 3d be c0 d5 45 bd 38 68 7f 3d dd c1 de 3c
       -0.18524045 -0.04829955 0.06235525 0.02719205
000120 ef ab 59 3d 00 b3 96 3a 67 9e dc bd 60 32 88 bd
       0.053142484 0.0011497438 -0.107724 -0.06650233
000130 34 b0 01 be 82 1e d4 bd 13 f6 76 3d be f7 60 be
       -0.12664872 -0.103573814 0.06029327 -0.21969506
000140 15 4e 97 3e 5f 5f 14 be 71 88 20 3d 92 a4 d2 3e
       0.2955176 -0.14489506 0.03919262 0.41141182
000150 50 89 91 bc 41 77 c4 bd 1c e1 36 3d 0b 1c d0 3c
       -0.017765671 -0.095930584 0.044648275 0.025403997
000160 e7 c7 fb 3d 01 ac f7 3c 28 b3 01 bd 23 51 cb bc
       0.12293988 0.030233385 -0.031664997 -0.024818962
000170 d8 6e b7 3d 88 fd 52 3c 94 a8 2b be b2 9f d7 3d
       0.08956689 0.012877829 -0.16763526 0.10528506
000180 5d c1 22 3d e7 ff 32 be 97 02 81 bd 37 1d 41 be
       0.039735187 -0.17480431 -0.06299322 -0.18858801
000190 fa 78 9f 3d 45 57 51 bc cc 81 11 bd 24 c9 e3 bd
       0.07786746 -0.012777154 -0.035524175 -0.11122349
0001a0 e2 88 1f bb 16 1e 25 be fd 00 76 bd 2c 60 f0 3c
       -0.0024343063 -0.16124758 -0.060059536 0.029342733
0001b0 dc 07 95 bd 85 ec 32 3c 64 1b b0 bd 57 58 39 bd
       -0.0727689 0.010920648 -0.08598974 -0.045250263
0001c0 ac 39 2c bd 77 2b 62 be 65 3c b1 bd 21 e9 49 be
       -0.042047188 -0.22086893 -0.086540975 -0.19717838
0001d0 d0 22 55 be 96 7c ed 3b fd 00 07 3f 70 4d 5e bd
       -0.20814061 0.007247518 0.52735883 -0.05427307
0001e0 02 b5 17 bd 94 3b 93 bd fd 90 58 3e 7e 4f fa 3e
       -0.037037857 -0.07189098 0.21149059 0.48888773
0001f0 4e b4 1b be 25 99 05 bd 6f 55 9a 3f cf f5 dc bc
       -0.152055 -0.032616753 1.2057322 -0.02697268
000200 32 e9 6c bd 67 7f f2 bd 6c 6c 90 bd 3e 56 93 3c
       -0.05783958 -0.11840706 -0.0705193 0.01798546
000210 7a d3 d7 bf e8 b0 8e bd 57 8a a3 bc 1d 10 56 bd
       -1.6861413 -0.06967336 -0.019963427 -0.05226146
000220 fc cd 38 3c 30 36 51 3c 90 1d 21 bd a8 05 73 bd
       0.011279579 0.012769267 -0.039334834 -0.059331566
000230 bf 1e 8e bc b3 39 a8 bd de d4 be bd 7b d1 8c bd
       -0.017348645 -0.0821413 -0.09317945 -0.06875893
000240 22 0b 94 bd 38 4d 04 bb 13 c6 9c bb c8 01 1a be
       -0.07228686 -0.0020187628 -0.0047843545 -0.15039742
000250 14 1d 33 3d 37 f4 80 bf fa 83 02 be c3 61 aa bb
       0.043728903 -1.0074528 -0.12745658 -0.0051996424
000260 4e de f5 bc d0 f7 2a 3d b0 7e b1 3d d8 4a 16 be
       -0.03001323 0.04174024 0.08666742 -0.14676988
000270 40 10 e7 3d 0d e3 38 bd c6 d1 42 3d 97 13 8e bd
       0.11282396 -0.045138407 0.047563337 -0.0693733
000280 f0 01 9c 3d 59 72 0a be b5 4b 13 bd 58 98 53 bd
       0.07617557 -0.13520183 -0.03596087 -0.05165896
000290 26 81 1a be 97 a4 eb 3d df 2e 08 bd b0 c3 14 bd
       -0.15088329 0.115060024 -0.033247825 -0.036319435
0002a0 c4 5a 3e bd a4 d6 92 bd 15 fd 14 be 4b 01 0b bd
       -0.04647328 -0.07169846 -0.14549668 -0.03393678
0002b0 94 52 3d be 7f 7d 08 be a0 12 63 bd 6e 09 21 3d
       -0.18488532 -0.13329123 -0.055437684 0.039315633
0002c0 fd 43 21 bd f8 a2 36 bd 48 db 1b bc 88 0f ef bd
       -0.03937148 -0.044589013 -0.00951273 -0.11672884
0002d0 57 29 46 bd a5 eb f8 bd dd e9 90 bd 34 50 2c be
       -0.04837927 -0.121543206 -0.07075856 -0.1682747
0002e0 78 49 4e 3e 7f 1b a6 bd a5 73 a8 3e 8e 5f 03 3f
       0.20145214 -0.08110713 0.3290073 0.5131768
0002f0 fb 93 08 bd 46 04 2a bd a5 bc a8 3d 55 4a c3 bd
       -0.03334425 -0.04150798 0.08239106 -0.09535662
000300 bb dc d9 3d 99 d6 aa bc 99 48 53 ba 3c 49 a0 be
       0.10637804 -0.020854281 -0.0008059829 -0.31305873
000310 f3 10 b5 bf c8 95 82 bc b3 9c c3 3d 5c 17 cd bc
       -1.4145797 -0.015940562 0.095513724 -0.025035553
000320 d1 fd 0b be a0 1b fc bc ae 3e 97 3d 30 6f f3 bd
       -0.13671042 -0.030774891 0.07385002 -0.11886442
000330 21 57 f6 bd 39 ae 5d bd c7 d0 b5 bc 9b 11 ab bd
       -0.12028337 -0.05412123 -0.02219428 -0.08352967
000340 79 b9 a2 3d b4 6f ee bc ce 8d 1f 3d 9d 79 7d bd
       0.07945532 -0.029105999 0.038953595 -0.061883558
000350 5c 55 95 3d 5a 1d 04 bf ee ae 24 be c4 94 83 3d
       0.07291672 -0.51607287 -0.16082355 0.06424859
000360 e1 f3 4d bd a8 73 66 3c e6 aa a9 bd 93 8c 03 be
       -0.05028141 0.014065661 -0.082845494 -0.12846594
000370 24 28 ac bd 8d 16 28 be 9f b7 28 be 27 b0 fc 3d
       -0.08406094 -0.16414852 -0.16476296 0.12338286
000380 8c 8e 93 3d 02 a4 81 bd 6b 35 e9 bd 49 76 8b bd
       0.07204923 -0.0633011 -0.11387142 -0.068096705
000390 d1 2e 18 be 3f 14 06 be 43 d0 77 bd 5f 9a a8 bd
       -0.14861609 -0.13093661 -0.06050135 -0.08232569
0003a0 5a c6 e7 3c 08 9e 50 bd 4c 39 31 3c f6 3e be 3c
       0.028292824 -0.05093196 0.010816883 0.023223381
0003b0 f9 11 29 3d f9 92 23 be 40 f5 64 bc 14 f4 3f 3c
       0.041276906 -0.15974034 -0.013974488 0.011715908
0003c0 b5 7b 55 bd 0d d4 59 bc b2 28 2b be 03 1c b1 bd
       -0.05211993 -0.013295186 -0.16714743 -0.08647921
0003d0 a0 08 44 3d 68 ec 17 be 15 8c 90 be 37 52 85 bd
       0.047859788 -0.14836276 -0.28231874 -0.06509822
0003e0 e6 54 bb 3e 33 c2 a8 bd e1 8c 70 3e ea 30 b0 3e
       0.3658821 -0.082401656 0.23491241 0.34412318
0003f0 cd f7 e2 bd 85 f5 ce bd f3 11 12 bd 0a 57 1c 3e
       -0.110824205 -0.10105423 -0.03566165 0.15267578

decoder.4.bias f4 [60]
000000 2a 7b 7b bd 76 cf 11 be ab 62 07 3c 19 bc 22 be
       -0.061396755 -0.14239296 0.00826327 -0.15892066
000010 ab ff fe bc 50 64 9e bd 29 ba 0c bd 86 d1 09 be
       -0.031127771 -0.07733977 -0.034357224 -0.13458833
000020 55 34 1b be f7 97 fe bd 95 cd 1d 3d 95 82 ba bd
       -0.15156682 -0.12431329 0.038526136 -0.09106938
000030 d1 b7 f4 bd 0b ba ed bb b7 77 19 be a4 8d 71 bc
       -0.11949123 -0.007254844 -0.14987074 -0.014743242
000040 11 10 16 bd d7 f0 4d 3c 97 2c f4 3c d3 6d 29 be
       -0.036636416 0.012569628 0.029806418 -0.16545801
000050 1c 27 83 bd 28 84 38 be 50 1f 05 be e1 fe fd bd
       -0.06403944 -0.18019164 -0.13000226 -0.1240213
000060 ff 24 1f be a5 ad 42 3d 46 f0 59 3d 22 a1 70 bd
       -0.15541457 0.04752888 0.05320766 -0.05874742
000070 ce ab 0a 3d d1 92 fc bd e5 f3 d9 bc dc b6 1f be
       0.033855252 -0.123326905 -0.026605556 -0.15597099
000080 92 b1 0f be 10 51 31 bd e5 26 99 3c 31 2a c3 3c
       -0.14032581 -0.043290198 0.018695304 0.02382383
000090 f0 3e 76 bd 9a 0f 8a 3c 89 5c ed bc 72 3a 29 3b
       -0.060118616 0.016853143 -0.028974788 0.002582219
0000a0 26 50 33 be bc e2 b1 3b b6 70 a1 bd 7e fd 91 bd
       -0.17511043 0.00542864 -0.07882826 -0.07128428
0000b0 2c 87 d7 bd a8 4a b0 3c 42 1d 05 bb 64 50 fb bd
       -0.10523829 0.021519974 -0.0020311628 -0.12271193
0000c0 58 8d 21 be a8 69 99 bd eb 90 0a be 4f 90 2a be
       -0.15776575 -0.074908555 -0.13531844 -0.16656612
0000d0 00 80 e4 3c a4 72 2a 3d f9 9c 84 bd 15 51 2e bd
       0.027893066 0.041613236 -0.06475253 -0.042557795
0000e0 ec e3 33 bd f1 24 81 bd 06 00 73 bc 1f 1b b9 bc
       -0.043918535 -0.06305874 -0.014831549 -0.02259594
