weights/metric_1_autoencoder.pth (torch, 58922 bytes, 15 tensors)

encoder.0.weight f4 [64, 60]
-0.1588141 -0.42813876 -0.3305778 -0.30776447 -0.40996277 0.080498524 0.091304004 -0.019172773
0.09914123 -0.0032413788 0.2304176 0.22511429 0.05165514 -0.056876674 0.06647471 0.4360393
-0.07068863 -0.006523878 -0.1346405 0.23069914 0.11256037 0.05460981 0.05491211 0.03354929
-0.088925 -0.107569136 -0.06761473 0.13766836 0.00447802 0.09347211 -0.04482655 0.06273269
-0.1467986 0.14553973 0.09269016 0.003544525 -0.0859967 0.04766666 0.031049581 0.041794416
0.008795655 0.15123299 0.03400561 -0.39305407 0.035952017 0.04309547 -0.09400412 -0.02839306
0.035091475 0.05009766 0.046707496 -0.1199718 0.07745719 -0.06815925 0.12577955 -0.015571162
-0.0957744 -0.048343547 0.112045646 -0.032488808 -0.20961104 -0.28314415 0.07068287 -0.2971226
-0.06337977 0.076647796 -0.008054016 0.17455135 -0.012234548 0.079128936 0.024778808 0.04318715
-0.10127931 -0.16635534 0.057401575 0.25550547 -0.08440527 -0.15787017 0.051013052 -0.055746157
-0.09880526 -0.2214661 -0.05899948 -0.06955056 -0.08902741 0.006892062 0.10122224 0.0076660905
0.040718284 -0.20922302 0.18681055 0.12981433 -0.15557005 0.04108803 -0.25490904 0.13261716
0.014068306 0.19626728 -0.07071434 -0.07730661 -0.1402996 0.058643356 -0.04785166 -0.00032348346
-4.8443675e-05 -0.0034500659 -0.09492245 -0.05488637 -0.0025559962 0.08378224 -0.05990722 0.04025647
-0.02784688 -0.09319168 -0.008428484 -0.05634 -0.09261606 -0.12383798 -0.09257425 -0.0034215301
0.13177173 -0.21496524 -0.25981152 -0.05970254 -0.19438863 -0.15873112 -0.11324388 -0.14881727
0.16232695 -0.10415125 0.16643685 0.105891526 -0.056990426 -0.16481183 -0.012703405 -0.20153095
0.03444162 0.14380649 0.06825094 -0.101526216 -0.025936326 0.043317847 0.051162664 -0.15650728
0.0005124647 -0.005462206 0.15986769 -0.13265234 -0.06401211 -0.09084418 -0.103798844 0.09415708
0.19982967 -0.60131645 0.19658357 -0.016464362 -0.11146713 0.10898673 0.06674667 -0.65460926
-0.116839305 0.070173614 0.03207894 -0.7561003 0.07790266 0.11742939 -0.022799008 0.0982229
-0.0657385 0.034315795 0.054248825 -0.010393046 -0.112467386 -0.11932224 0.075322464 -0.07239579
-0.026208028 -0.10458047 -0.011280149 0.0688228 0.07599141 -0.20523217 -0.16762137 -0.22470179
-0.15977418 0.21742119 0.23691134 0.089463875 -0.1474882 0.10862682 0.2964225 -0.26331276
-0.12880035 -0.11844154 -0.18927754 0.10001262 0.109304756 -0.1867248 -0.009599114 0.14099783
0.13672212 0.007144652 -0.15288489 -0.20544255 -0.29363152 -0.11277534 0.015767505 -0.01788279
0.00768758 0.036276974 -0.12502886 -0.2354797 -0.067434564 -0.17825954 0.017289381 -0.040418956
-0.08609383 -0.18499635 -0.006524264 -0.20550163 0.018639851 0.020119887 -0.13500558 0.2829604
-0.040009998 0.030492634 -0.11115514 -0.031146124 -0.08049002 0.033392414 0.02862686 0.03816703
0.006382674 -0.031511046 0.055346623 -0.027803063 -0.06624005 0.117547676 0.09157121 -0.09617889
0.03924741 -0.108784415 0.1737719 -0.16567643 0.32865414 -0.1494573 -0.16241525 0.0643597
0.19660495 -0.18024509 -0.21628591 -0.16686597 -0.1688123 -0.06713008 -0.18115388 -0.16135696
00000000: 2aa0 22be 0135 dbbe 7e41 a9be 4e93 9dbe
00000010: a4e6 d1be 69dc a43d 98fd ba3d 3810 9dbc
00000020: 8f0a cb3d 506d 54bb 97f2 6b3e 5c84 663e
00000030: 5794 533d 84f7 68bd e523 883d 8b40 df3e
00000040: 33c5 90bd 41c6 d5bb 33df 09be 653c 6c3e
00000050: 0d86 e63d 89ae 5f3d 85eb 603d fb6a 093d
00000060: 4f1e b6bd 354d dcbd 9779 8abd eff8 0c3e
00000070: 5bbc 923b 4e6e bf3d 0b9c 37bd ff79 803d
00000080: 5f52 16be 5e08 153e 57d4 bd3d 434b 683b
00000090: 0a1f b0bd 1e3e 433d b15b fe3c 9f30 2b3d
000000a0: a71b 103c d2dc 1a3e 7749 0b3d 623e c9be
000000b0: 6c42 133d e084 303d 3b85 c0bd 9098 e8bc
000000c0: 14bc 0f3d 3433 4d3d 5c50 3f3d c6b3 f5bd
000000d0: e0a1 9e3d 1497 8bbd 5bcc 003e 301e 7fbc
000000e0: 5e25 c4bd e203 46bd 3078 e53d fc12 05bd
000000f0: 47a4 56be 45f8 90be 2ec2 903d 7420 98be
00000100: 41cd 81bd 85f9 9c3d fef4 03bc 97bd 323e
00000110: 6a73 48bc 5a0e a23d edfc ca3c 02e5 303d
00000120: 876b cfbd 0e59 2abe ea1d 6b3d 9dd1 823e
00000130: acdc acbd b8a8 21be 10f3 503d 1556 64bd
00000140: 6a5a cabd 02c8 62be 70a9 71bd 8670 8ebd
00000150: 0154 b6bd ced6 e13b 9b4d cf3d d433 fb3b
00000160: 37c8 263d 8f3e 56be 444b 3f3e 0cee 043e
00000170: c14d 1fbe ec4b 283d 7083 82be cbcc 073e
00000180: c17e 663c 4afa 483e aed2 90bd ee52 9ebd
00000190: b3aa 0fbe 0434 703d 1a00 44bd 3799 a9b9
000001a0: 0030 4bb8 801a 62bb b466 c2bd 88d0 60bd
000001b0: 8082 27bb 0696 ab3d 4661 75bd f8e3 243d
000001c0: 241f e4bc 48db bebd a017 0abc c6c4 66bd
000001d0: 7dad bdbd c49e fdbd 9297 bdbd c03b 60bb
000001e0: 2bef 063e d91f 5cbe 0406 85be a78a 74bd
000001f0: d00d 47be 698a 22be 68ec e7bd 8e63 18be
00000200: 0939 263e 404d d5bd 6c6e 2a3e a8dd d83d
00000210: cb6e 69bd 6fc4 28be f121 50bc 215e 4ebe
00000220: a812 0d3d 0242 133e 26c7 8b3d faec cfbd
00000230: 6b78 d4bc 0e6e 313d f18f 513d 7243 20be
00000240: ed56 063a 4efc b2bb 5bb4 233e 04d6 07be
00000250: c818 83bd 830c babd 7d94 d4bd 6dd5 c03d
00000260: 26a0 4c3e e0ef 19bf 344d 493e 45e0 86bc
00000270: e148 e4bd 6f34 df3d 7ab2 883d 7994 27bf
00000280: 7249 efbd 2fb7 8f3d 3565 033d ca8f 41bf
00000290: 6e8b 9f3d d27e f03d fcc4 babc 1629 c93d
000002a0: e8a1 86bd b88e 0c3d 0434 5e3d 9847 2abc
000002b0: 4d55 e6bd 385f f4bd aa42 9a3d 3e44 94bd
000002c0: 38b2 d6bc 492e d6bd 60d0 38bc f8f2 8c3d
000002d0: 62a1 9b3d 6228 52be f0a4 2bbe 3a18 66be
000002e0: d89b 23be a9a3 5e3e e398 723e d638 b73d
000002f0: 2607 17be bd77 de3d b1c4 973e eed0 86be
00000300: 3de4 03be 7a91 f2bd f9d1 41be 6bd3 cc3d
00000310: 2cdb df3d c934 3fbe 9a45 1dbc bc61 103e
00000320: e200 0c3e af1d ea3b db8d 1cbe 885f 52be
00000330: df56 96be c2f6 e6bd db2a 813c ee7e 92bc
00000340: 18e8 fb3b 2a97 143d 9107 00be 9721 71be
00000350: 221b 8abd ab89 36be 76a2 8d3c 598e 25bd
00000360: f651 b0bd af6f 3dbe 7ec9 d5bb 056f 52be
00000370: 9ab2 983c 76d2 a43c e73e 0abe 30e0 903e
00000380: 86e1 23bd b0cb f93c 4ea5 e3bd 2826 ffbc
00000390: f4d7 a4bd 7cc6 083d e082 ea3c 0855 1c3d
000003a0: c025 d13b ba11 01bd 24b3 623d 40c3 e3bc
000003b0: dda8 87bd d6bc f03d b089 bb3d 70f9 c4bd
000003c0: e4c1 203d 5dca debd 43f1 313e 15a7 29be
000003d0: 5b45 a83e 560b 19be 2f50 26be 05cf 833d
000003e0: cf52 493e 2b92 38be 0e7a 5dbe eade 2abe
000003f0: 22dd 2cbe 7f7b 89bd 6780 39be c23a 25be

encoder.0.bias f4 [64]
0.055532116 0.15494685 0.019885708 0.03740602 0.018799206 0.22221024 0.09195329 0.13168341
0.041239742 -0.04225519 0.09142233 0.08454314 0.05461296 0.036930893 0.22636889 0.09599632
0.16810921 0.16486967 0.06812826 0.17697206 -0.07826008 0.1873243 0.07461004 0.18043172
0.067538165 0.08913924 -0.02987549 0.11035644 0.100668736 0.060722783 0.17017971 0.090302736
0.16747777 -0.015880493 0.10408267 0.1896981 0.19355547 0.027948255 0.07246044 0.09109419
-0.018376011 0.15232512 0.04666181 0.048059426 0.16595435 0.12392068 0.17339227 -0.0042257747
0.11152249 0.07213204 0.14373687 0.05963816 0.17448671 -0.0032069383 0.22353797 0.13655671
0.15770505 0.05981336 0.18511754 0.10079674 0.07745425 0.014486715 0.122829 -0.0040169777
00000000: a575 633d 63aa 1e3e 5ae7 a23c 0e37 193d
00000010: cb00 9a3c 158b 633e 0252 bc3d 04d8 063e
00000020: 01eb 283d c713 2dbd a13b bb3d f424 ad3d
00000030: d7b1 5f3d d944 173d 3fcd 673e b899 c43d
00000040: d224 2c3e 98d3 283e d486 8b3d 2a38 353e
00000050: d246 a0bd f1d1 3f3e 26cd 983d 18c3 383e
00000060: 7351 8a3d a28e b63d 72bd f4bc 8f02 e23d
00000070: 692b ce3d 74b8 783d 9743 2e3e a4f0 b83d
00000080: 4b7f 2b3e cf17 82bc 4b29 d53d 3840 423e
00000090: 6833 463e bdf3 e43c 2466 943d 978f ba3d
000000a0: 4a89 96bc 1efb 1b3e 7420 3f3d f6d9 443d
000000b0: f0ef 293e 20ca fd3d be8d 313e 5e78 8abb
000000c0: e765 e43d f7b9 933d c22f 133e 2547 743d
000000d0: a5ac 323e 7f2b 52bb 23e7 643e 86d5 0b3e
000000e0: 6f7d 213e dbfe 743d 748f 3d3e 856e ce3d
000000f0: 55a0 9e3d b059 6d3c c58d fb3d daa0 83bb

encoder.2.weight f4 [32, 64]
0.26091686 0.10436356 0.22412701 0.1536343 0.27776828 0.20171267 0.23231786 0.13689312
0.04517722 -0.0058764573 0.15979663 0.17723441 0.29793018 0.24432898 0.26318967 0.30739975
0.027354334 0.015515997 0.11375178 0.17791952 0.022613158 0.10820711 0.28228426 0.24121462
-0.010448983 0.050512273 0.18049994 0.24503596 0.2780869 0.16498691 0.19981603 0.13044101
0.104143865 0.24514334 0.20847264 0.18081807 0.1350453 0.04213089 0.16395797 1.0653367
0.8464105 0.22701606 0.15858293 0.0035980684 0.1670456 0.10614546 0.35084316 0.040311333
0.37388194 0.34980676 0.124653615 0.2616814 0.28946954 0.2827243 0.10656892 0.35666782
0.2131768 0.24064195 0.36766416 0.26586688 0.32342374 0.41302925 0.3528105 -0.062155806
0.16316225 0.23247181 0.1465028 0.09543031 0.07308632 0.18801652 -0.009074556 -0.016828664
-0.07176838 0.08481784 0.14479558 0.18386832 0.10909254 0.13560858 0.005301357 0.06376024
0.083927676 -0.05135822 0.1659337 0.1282447 -0.0018268836 0.014709251 0.14052291 0.027471622
0.10816951 0.044112433 0.20694172 0.10960199 0.09994106 0.008907574 0.19280498 0.1702169
0.19209197 0.123358466 0.18134421 0.06117251 0.21386519 -0.099272706 0.25154534 0.3752359
0.21871674 0.07929914 0.1481718 0.041699264 0.0928524 0.095090866 0.08064314 0.10896776
0.063406564 0.1985671 -0.013482935 0.1081598 0.1173524 0.22764404 -0.04843803 0.07639515
0.107630536 0.058790095 0.104503796 0.26561627 0.047768842 0.08721254 0.18916136 0.08763436
0.0775975 0.14318208 -0.012988368 0.06531363 0.18862197 -0.0077943793 0.04887094 -0.011316955
-0.05003936 0.11195059 -0.0033739752 0.2092768 0.1315621 0.097561635 0.003846066 0.054279555
-0.03661274 0.016979741 0.061336063 0.07798784 -0.2444565 -0.02604001 -0.009796398 0.2191844
0.13102819 0.019168682 0.14141734 0.17475122 0.2184687 0.20795296 0.15725237 0.10962998
0.19205648 0.10276673 0.12910642 0.022614868 0.09123721 0.022750702 0.05814645 0.16702293
0.29304615 -0.03443008 0.0387564 0.12903117 0.041072227 0.13353021 0.11001283 0.15144947
0.20675609 -0.019587796 0.18670927 0.046379384 0.16652615 0.011888322 0.2034447 0.2075244
0.1787004 -0.02218869 0.100094825 -0.007799946 0.14648388 0.0058560013 -0.026506564 0.00082322187
-0.07264538 -0.10759985 -0.09432061 0.08587687 0.0047435556 -0.017257536 0.08094086 -0.06725896
0.032644335 -0.056696918 -0.035682674 0.0902977 0.021555465 0.090126805 -0.08340504 -0.13529621
-0.15209274 -0.043168865 0.02876287 -0.10545983 -0.026765723 0.042276476 -0.057804182 0.029117346
-0.11555309 0.08232959 0.05811462 -0.0039358167 -0.08888806 0.022011144 -0.025842305 -0.053278714
0.07928632 0.068548664 0.07551442 -0.06479643 0.048045836 -0.13856561 0.08952364 0.018641306
-0.0074523883 -0.056780647 0.060366075 -0.13973293 -0.014230519 -0.103321336 -0.023441093 0.02868934
0.042159334 0.05688332 -0.111542836 0.074001916 -0.08876348 0.015229799 0.06281389 0.015359859
0.024187589 -0.07712044 -0.052691065 0.054827545 -0.08813972 -0.056798264 0.020795763 0.04641298
00000000: e596 853e 90bc d53d 8d81 653e 4f52 1d3e
00000010: a537 8e3e c48d 4e3e bce4 6d3e b62d 0c3e
00000020: c00b 393d 4c8f c0bb baa1 233e f07c 353e
00000030: 4e8a 983e 6031 7a3e ccc0 863e 8063 9d3e
00000040: 3216 e03c cf36 7e3c b1f6 e83d 8930 363e
00000050: 3b3f b93c b09b dd3d 9087 903e f700 773e
00000060: 3632 2bbc f5e5 4e3d fad4 383e b5ea 7a3e
00000070: 6861 8e3e 54f2 283e 939c 4c3e 5492 053e
00000080: 6149 d53d db06 7b3e da79 553e 5f28 393e
00000090: 5149 0a3e 7191 2c3d 99e4 273e f45c 883f
000000a0: 5cae 583f e676 683e 9063 223e 92cd 6b3b
000000b0: 000e 2b3e ca62 d93d b7a1 b33e 7f1d 253d
000000c0: 746d bf3e df19 b33e 654a ff3d 1bfb 853e
000000d0: 5a35 943e 3dc1 903e ce40 da3d 2a9d b63e
000000e0: 054b 5a3e d86a 763e 7a3e bc3e b41f 883e
000000f0: cc97 a53e 9278 d33e 94a3 b43e 1697 7ebd
00000100: 0114 273e 170d 6e3e d404 163e f770 c33d
00000110: 48ae 953d 6787 403e 72ad 14bc 44dc 89bc
00000120: 4dfb 92bd fab4 ad3d 4b45 143e fa47 3c3e
00000130: e96b df3d fadc 0a3e 01b7 ad3b bb94 823d
00000140: 46e2 ab3d ff5c 52bd 86ea 293e 9452 033e
00000150: 0b74 efba 12ff 703c 3de5 0f3e 2b0c e13c
00000160: fa87 dd3d 3daf 343d 88e8 533e 0277 e03d
00000170: e6ad cc3d 13f1 113c ab6e 453e 574d 2e3e
00000180: c2b3 443e 5da3 fc3d 4cb2 393e 0790 7a3d
00000190: 7aff 5a3e 7d4f cbbd 8dca 803e eb1e c03e
000001a0: 48f7 5f3e 9667 a23d 59ba 173e d9cc 2a3d
000001b0: 6629 be3d 00bf c23d 3b28 a53d 7d2a df3d
000001c0: 4ddb 813d 2d55 4b3e 87e7 5cbc e382 dd3d
000001d0: 7556 f03d 851b 693e f566 46bd 0f75 9c3d
000001e0: 666d dc3d e2cd 703d 1606 d63d dbfe 873e
000001f0: 43a9 433d 7d9c b23d 84b3 413e a579 b33d
00000200: 70eb 9e3d 539e 123e 2acd 54bc 27c3 853d
00000210: 1e26 413e fe67 ffbb e52c 483d c06a 39bc
00000220: 12f6 4cbd 5a46 e53d e91d 5dbb a84c 563e
00000230: 37b8 063e 65ce c73d 480e 7c3b 3d54 5e3d
00000240: 3ef7 15bd 1919 8b3c 863b 7b3d 17b8 9f3d
00000250: ce52 7abe dc51 d5bc 1281 20bc e071 603e
00000260: 412c 063e a407 9d3c b5cf 103e fcf1 323e
00000270: 42b6 5f3e 9ff1 543e c406 213e af85 e03d
00000280: 74aa 443e 5d77 d23d 7934 043e d142 b93c
00000290: 93da ba3d ae5f ba3c f92a 6e3d 0f08 2b3e
000002a0: 250a 963e 8e06 0dbd 08bf 1e3d bf20 043e
000002b0: 5a3b 283d 25bc 083e 684e e13d 9215 1b3e
000002c0: deb7 533e 9676 a0bc b730 3f3e 4ff8 3d3d
000002d0: d585 2a3e 3dc7 423c cf53 503e 4781 543e
000002e0: 3dfd 363e 0ec5 b5bc 84fe cc3d b096 ffbb
000002f0: dfff 153e b3e3 bf3b 4b24 d9bc 7ccd 573a
00000300: 1ac7 94bd 4f5d dcbd 2a2b c1bd 36e0 af3d
00000310: d46f 9b3b ad5f 8dbc 52c4 a53d 11bf 89bd
00000320: 11b6 053d 073b 68bd ff27 12bd 00ee b83d
00000330: 1695 b03c 6794 b83d 43d0 aabd 178b 0abe
00000340: 33be 1bbe d6d1 30bd 1ca0 eb3c 53fb d7bd
00000350: ca43 dbbc 192a 2d3d 14c4 6cbd 8087 ee3c
00000360: 19a7 ecbd 6b9c a83d 9909 6e3d 06f8 80bb
00000370: f10a b6bd b750 b43c 3eb3 d3bc c83a 5abd
00000380: de60 a23d 3e63 8c3d 4ea7 9a3d feb3 84bd
00000390: b6cb 443d 25e4 0dbe 2c58 b73d a7b5 983c
000003a0: 2a33 f4bb d392 68bd 6b42 773d 2616 0fbe
000003b0: 1f27 69bc 239a d3bd 8907 c0bc e805 eb3c
000003c0: 44af 2c3d 7cfe 683d 9270 e4bd 518e 973d
000003d0: a1c9 b5bd 6886 793c 92a4 803d eba7 7b3c
000003e0: 0d25 c63c 52f1 9dbd 96d2 57bd d992 603d
000003f0: 9982 b4bd 4ca5 68bd e05b aa3c 891b 3e3d

encoder.2.bias f4 [32]
-0.031083953 0.12714657 0.13115309 -0.03320035 0.04242768 0.21790512 -0.028240552 -0.04320344
0.07306396 -0.103363544 0.034196477 0.13627572 0.14526682 0.034125987 0.09405005 0.25562003
0.20165293 0.025892455 0.18813817 0.18495181 0.39194098 0.07564952 0.16903839 0.074240334
-0.11370407 0.10946815 0.10465758 0.18836325 0.03805796 -0.053152245 0.059609164 0.103467934
00000000: c6a3 febc b632 023e ff4c 063e 17fd 07bd
00000010: a6c8 2d3d 8522 5f3e bb58 e7bc 17f6 30bd
00000020: 8fa2 953d 44b0 d3bd 9b11 0c3d dd8b 0b3e
00000030: d3c0 143e b1c7 0b3d 509d c03d a1e0 823e
00000040: 1b7e 4e3e 6a1c d43c 4ba7 403e 0264 3d3e
00000050: 7dac c83e 23ee 9a3d 6618 2d3e 510b 983d
00000060: aedd e8bd d630 e03d b756 d63d 4ce2 403e
00000070: aae2 1b3d 2bb6 59bd bd28 743d ffe6 d33d

encoder.4.weight f4 [16, 32]
-0.026652826 -0.11053427 0.115432926 0.11121905 -0.49807724 -0.1774445 -0.18024173 -0.008430451
-0.22013628 -0.021588564 0.08160562 0.0072074174 -0.0392981 0.19103482 0.107741304 -0.012694294
-0.03369065 0.01039745 0.09986318 -0.0045226472 0.69391173 -0.022722412 -0.66078645 0.17384022
0.071897045 -0.63190174 0.012924562 0.11478819 0.31382945 0.058864295 -0.009746919 0.122371264
0.32093662 0.18467738 -0.10525922 0.015860753 -0.6614804 -0.021978676 0.060433846 0.06900796
0.057221532 0.14901671 0.23669031 0.11715941 -0.5401594 0.035410453 0.41540542 -0.5472827
0.045227583 0.22928265 0.26927608 0.2196365 0.57799184 -0.026591737 -0.5151125 0.12704591
-0.009559875 -0.18287806 -0.07424474 0.06297178 0.21956316 -0.09193228 0.1226805 0.0069056316
1.1482891 0.38948232 0.5980037 -0.101117186 -0.16440944 -0.5537933 0.88297546 -0.0034754246
0.47148633 -0.14980298 0.49962 0.582107 0.3589898 0.3003593 0.27161983 0.89890105
0.28690746 0.8228268 0.121936396 0.27954942 0.43904167 0.46748924 -0.020110007 0.25724185
0.028876746 -0.25241524 0.5050298 0.4750279 -0.17250876 -0.0065392363 0.10165957 0.4914779
-0.017914908 0.13440545 -0.0059227794 -0.07666672 0.03374527 1.2165023 -0.04778168 -0.058042616
0.20803024 0.08569919 0.11436878 -0.002947541 0.060870778 0.15414108 0.097195424 -0.24564375
0.04038338 0.45132542 0.20021288 0.19158569 -0.85532916 0.23370932 0.41384864 -0.020693043
-0.016177714 0.23840292 0.11113416 0.17864181 -0.048083622 -0.15937601 -0.08265505 0.1980185
-0.12894624 0.06865733 0.20671286 0.10236433 -0.1496554 -0.15197702 -0.05308457 0.086777866
-0.06894839 0.083063945 -0.07519631 0.19635195 0.41255108 -0.028496636 0.039954353 0.73938936
0.07939566 -0.15244307 0.023241019 -0.059376847 0.17810331 0.018321717 0.2212316 0.04824779
0.16697027 -0.48832643 -0.08987002 0.22823595 0.7572199 -0.15861478 0.1964605 -0.030143376
0.14730592 0.09237163 -0.14366363 -0.086412586 0.03751046 -0.16842704 -0.05325193 -0.16986394
-0.07863602 -0.049099788 0.15196969 0.013281834 -0.028964696 0.06588835 0.11160066 -0.165412
0.11192597 -0.14752531 -0.18164158 -0.06205622 -0.14684539 0.07090742 -0.18370628 -0.10060743
-0.15575963 -0.054760475 -0.102911726 0.11461696 -0.11888671 0.00026304778 -0.025620872 -0.13250169
0.07666741 -0.15313421 -0.054408196 -0.014294068 0.06277314 0.09956857 0.0084270425 0.03501602
0.03872229 0.028168678 -0.06493695 -0.17968664 0.034633107 0.04297283 -0.0049774963 0.1235072
-0.13699244 0.08557521 -0.00072787586 -0.11712671 -0.033394862 -0.14482132 -0.10133166 -0.15137918
0.03306541 -0.14379281 -0.07611457 0.059867848 -0.12677522 0.13311401 0.018470604 -0.12840393
0.24560194 -0.015790869 0.24889015 -0.05005906 0.109559074 0.44500127 0.26589358 -0.1206936
-0.008682192 -0.08759315 0.05928017 -0.038471427 -0.043472536 0.17049864 -0.014515309 -0.08639741
0.112334624 0.25017554 -0.036566988 0.043059103 -0.8543958 0.25742254 0.26898915 0.08847279
-0.0717223 0.19757828 0.14734213 0.19263738 0.10254353 -0.08068399 0.012911998 0.055756044
00000000: 0757 dabc cb5f e2bd 1968 ec3d d0c6 e33d
00000010: fb03 ffbe 03b4 35be 4a91 38be e01f 0abc
00000020: 686b 61be 80da b0bc d920 a73d 332c ec3b
00000030: 0bf7 20bd a29e 433e 79a7 dc3d bafb 4fbc
00000040: 35ff 09bd 115a 2a3c 1185 cc3d b732 94bb
00000050: 33a4 313f 5a24 babc 4d29 29bf 2c03 323e
00000060: c23e 933d 50c4 21bf 8bc1 533c 1216 eb3d
00000070: 41ae a03e b01b 713d 8bb1 1fbc c99d fa3d
00000080: ce51 a43e 111c 3d3e 2592 d7bd 69ee 813c
00000090: c856 29bf a00c b4bc 7b89 773d 0c54 8d3d
000000a0: 2061 6a3d d697 183e f25e 723e 46f1 ef3d
000000b0: e347 0abf 8d0a 113d 05b0 d43e b81a 0cbf
000000c0: 8f40 393d 12c9 6a3e 8ede 893e 64e8 603e
000000d0: 46f7 133f ead6 d9bc 6ade 03bf 5318 023e
000000e0: 06a1 1cbc 6344 3bbe a00d 98bd 59f7 803d
000000f0: 2ad5 603e fe46 bcbd ea3f fb3d a348 e23b
00000100: 23fb 923f 3a6a c73e c516 193f 8716 cfbd
00000110: f35a 28be 66c5 0dbf ae0a 623f f3c3 63bb
00000120: a866 f13e f465 19be 31ce ff3e f704 153f
00000130: 83cd b73e b2c8 993e c111 8b3e 611e 663f
00000140: 89e5 923e c7a4 523f cab9 f93d 1a21 8f3e
00000150: 12ca e03e c05a ef3e bebd a4bc 34b5 833e
00000160: ed8e ec3c 923c 81be a249 013f db36 f33e
00000170: 23a6 30be 1747 d6bb e532 d03d fea2 fb3e
00000180: 49c2 92bc 95a1 093e e013 c2bb 7103 9dbd
00000190: 7b38 0a3d 59b6 9b3f b9b6 43bd 18be 6dbd
000001a0: e105 553e 0f83 af3d 2e3a ea3d 882b 41bb
000001b0: a353 793d 29d7 1d3e 650e c73d 098a 7bbe
000001c0: 0b69 253d 2014 e73e 9b04 4d3e 0a2f 443e
000001d0: daf6 5abf 7f51 6f3e f8e3 d33e 7584 a9bc
000001e0: 2087 84bc e51f 743e 4e9a e33d e1ed 363e
000001f0: 55f3 44bd 7733 23be 0d47 a9bd 5dc5 4a3e
00000200: 7c0a 04be 379c 8c3d 89ac 533e 64a4 d13d
00000210: 443f 19be dd9f 1bbe 356f 59bd 98b8 b13d
00000220: d034 8dbd 6e1d aa3d 8600 9abd 7c10 493e
00000230: e539 d33e c771 e9bc 2da7 233d 9f48 3d3f
00000240: 319a a23d 091a 1cbe f363 be3c 2335 73bd
00000250: b760 363e 6d17 963c 898a 623e 7a9f 453d
00000260: 41fa 2a3e ec05 fabe c60d b8bd afb6 693e
00000270: 2ad9 413f ea6b 22be f12c 493e 3eef f6bc
00000280: 5dd7 163e 562d bd3d 8f1c 13be 15f9 b0bd
00000290: 91a4 193d 2378 2cbe b21e 5abd d0f0 2dbe
000002a0: ec0b a1bd dc1c 49bd f19d 1b3e 0d9c 593c
000002b0: 5f47 edbc 79f0 863d e38e e43d c361 29be
000002c0: 7139 e53d e010 17be 4000 3abe aa2e 7ebd
000002d0: a35e 16be e937 913d 801d 3cbe 450b cebd
000002e0: 747f 1fbe 854c 60bd 62c3 d2bd 4cbc ea3d
000002f0: e07a f3bd ade9 8939 dde2 d1bc 86ae 07be
00000300: ce03 9d3d 37cf 1cbe 21db 5ebd ab31 6abc
00000310: 348f 803d 9bea cb3d 9411 0a3c f56c 0f3d
00000320: 449b 1e3d 00c2 e63c aafd 84bd c6ff 37be
00000330: 72db 0d3d 4704 303d 441a a3bb 58f1 fc3d
00000340: bf47 0cbe 0e42 af3d ecce 3eba 21e0 efbd
00000350: 0dc9 08bd 0a4c 14be f986 cfbd 2503 1bbe
00000360: 986f 073d 6c3e 13be f5e1 9bbd fd37 753d
00000370: 5dd1 01be 0a4f 083e aa4f 973c 527c 03be
00000380: 137f 7b3e da5b 81bc 0fdd 7e3e bb0a 4dbd
00000390: 8260 e03d 35d7 e33e 3423 883e 352e f7bd
000003a0: c13f 0ebc 0a64 b3bd c3cf 723d 3794 1dbd
000003b0: 4210 32bd 3297 2e3e 9ed1 6dbc 20f1 b0bd
000003c0: b20f e63d 0217 803e 44c7 15bd be5e 303d
000003d0: afb9 5abf e3cc 833e f2b8 893e 3931 b53d
000003e0: 24e3 92bd f651 4a3e dbe0 163e bc42 453e
000003f0: 5802 d23d a63d a5bd d88c 533c 7360 643d

encoder.4.bias f4 [16]
0.0139042605 -0.27498493 -0.07559842 0.062056016 0.09944642 -0.008451463 0.10195557 0.14390725
0.08462327 -0.17027646 0.02737686 0.24126163 -0.1672812 -0.13301429 -0.095122635 0.17507654
00000000: b2ce 633c d3ca 8cbe 58d3 9abd 732e 7e3d
00000010: 91aa cb3d 0178 0abc 15ce d03d 6c5c 133e
00000020: f74e ad3d f45c 2ebe 7045 e03c 4a0d 773e
00000030: c34b 2bbe e634 08be a8cf c2bd 4447 333e

decoder.0.weight f4 [32, 16]
0.2251266 0.45718366 0.51159406 -0.19158353 0.6440361 -0.11240983 -0.001056807 -0.5390142
-0.19750439 -0.19710624 0.19203839 -0.022606973 -0.012186043 0.031298816 0.65239894 -0.39044467
-0.28656927 -0.4376342 0.3007819 -0.124151774 0.2952869 0.24414228 0.05232581 0.13914184
0.17650424 -0.14857903 0.26098457 0.24272963 0.080735356 -0.13068423 0.60142297 -0.049587145
0.6178413 0.44123605 0.09940108 -0.5900755 0.12577152 -0.15557668 -0.106968075 -0.41739437
-0.62011594 -0.023849696 -0.22293025 -0.117357016 -0.11509709 -0.11340949 -0.056594174 -0.5593623
-0.36402017 0.074069016 0.2517898 0.8958865 -0.4821918 0.21983436 -0.10456196 0.5594582
0.30373865 -0.2299217 -0.13206463 0.28072247 -0.20955595 0.23202941 -0.42332232 0.7112962
0.22039527 0.4481516 0.44304505 0.3178839 -0.03421705 0.1175195 -0.17542288 -0.022425344
0.046398416 0.050020844 0.062049203 0.29523993 -0.1490216 -0.028204309 -0.45509297 0.34619376
-0.12394833 0.08269873 -0.1578463 0.1442879 0.112951785 -0.025553465 -0.09278524 0.08131496
-0.06715685 -0.24242753 0.06682759 0.028738936 0.12810141 -0.19976658 -0.24009693 -0.16235067
0.33344063 0.56159 0.45716098 0.14921984 -0.12711258 0.13822609 -0.094446555 -0.063050166
0.02367137 -0.16645876 -0.24847144 0.21969865 0.018240275 0.106027886 0.3721447 0.25806934
-0.44126958 -0.10099327 0.25353047 0.24468116 0.115715116 0.14094318 -0.22257972 0.10644031
0.08786161 0.15832385 -0.003388336 0.30754265 0.18838477 -0.24482074 0.1752935 0.16346198
0.05271625 0.6691612 0.15849537 0.29390955 -0.44341135 0.024528474 -0.10661882 0.25506276
-0.07720428 -0.090153664 0.13866597 -0.024787907 0.18787794 0.17179655 -0.23025544 0.3107368
-0.25891057 0.17232218 0.28832993 -0.14691207 -0.29573262 0.21439812 0.17378096 0.14262031
0.20469506 0.10998207 0.1238914 0.080766104 0.165695 0.02861321 -0.07012965 0.1651727
-0.035767164 0.05995523 0.6199666 -0.027038297 0.22726619 -0.047673345 -0.1747584 0.26690567
0.24379858 0.024711847 -0.18792732 0.2945769 0.062191308 0.22394468 0.8155145 -0.12879029
-0.061407845 0.061015196 0.17188475 0.118613794 -0.013956109 -0.009784921 -0.24421524 0.21498449
0.21120326 0.20373309 0.0037677344 0.11540743 -0.02136004 0.17378901 0.7500083 -0.10021135
-0.28049237 -0.024093237 -0.03767108 0.25910914 -0.0019745287 -0.23545057 -0.11285234 0.16951917
0.048411902 -0.23452744 -0.04825434 0.12991977 -0.13017792 0.10857217 0.11091395 0.28005552
-0.13695759 -0.27374518 0.12010832 -0.0055557345 0.1913289 -0.12119139 0.02772683 -0.0555372
-0.05049427 -0.2314896 -0.015541963 0.26364076 0.2173043 0.05126073 0.56446344 -0.039667476
-0.3627774 -0.22764017 -0.01846363 0.20224598 0.11277499 0.2115663 -0.14142527 0.08384862
0.042135417 0.24627382 -0.19737807 0.050641533 -0.09042442 0.0074774865 -0.008773533 0.18742225
0.32246187 0.2847249 0.4272089 -0.40875137 -0.019628197 0.06670529 -0.044369794 -0.30036733
-0.013641005 -0.055350333 0.040684555 -0.2944479 -0.04968317 0.21256925 -0.2938363 0.14649767
00000000: 9687 663e fa13 ea3e d4f7 023f 792e 44be
00000010: 8ddf 243f 2037 e6bd 8f84 8aba d6fc 09bf
00000020: 973e 4abe 38d6 49be b6a5 443e 4232 b9bc
00000030: f8a7 47bc 3033 003d 9e03 273f 5de8 c7be
00000040: 35b9 92be 9711 e0be 1600 9a3e 4943 febd
00000050: d82f 973e 6f00 7a3e 9753 563d 337b 0e3e
00000060: 87bd 343e 1a25 18be c59f 853e 1e8e 783e
00000070: 9458 a53d 16d2 05be dbf6 193f e41b 4bbd
00000080: d92a 1e3f b1e9 e13e cb92 cb3d 300f 17bf
00000090: 40ca 003e 7e4f 1fbe 1412 dbbd b7b4 d5be
000000a0: ebbf 1ebf 7060 c3bc d447 64be e058 f0bd
000000b0: 06b8 ebbd 3c43 e8bd 4bcf 67bd 5e32 0fbf
000000c0: da60 babe 7fb1 973d 98ea 803e d158 653f
000000d0: d8e1 f6be 421c 613e 9524 d6bd a738 0f3f
000000e0: a283 9b3e 9870 6bbe f33b 07be dbba 8f3e
000000f0: d695 56be 1e99 6d3e b4bd d8be 8217 363f
00000100: 4caf 613e 2074 e53e cdd6 e23e aec1 a23e
00000110: 2d27 0cbd 10ae f03d 0ea2 33be 5bb5 b7bc
00000120: 440c 3e3d a8e2 4c3d 4e27 7e3d b029 973e
00000130: 1e99 18be b90c e7bc f201 e9be 4f40 b13e
00000140: 9fd8 fdbd f45d a93d 76a2 21be 35c0 133e
00000150: 4453 e73d 8055 d1bc 3006 bebd 7588 a63d
00000160: 8889 89bd ec3e 78be e7dc 883d eb6d eb3c
00000170: 042d 033e 9c8f 4cbe f8db 75be 413f 26be
00000180: bbb8 aa3e 5dc4 0f3f 0111 ea3e 16cd 183e
00000190: cd29 02be 248b 0d3e 326d c1bd 7220 81bd
000001a0: 76ea c13c 2a74 2abe 4c6f 7ebe aff8 603e
000001b0: a16c 953c 2625 d93d c089 be3e aa21 843e
000001c0: 16ee e1be 8fd5 cebd bfce 813e b38d 7a3e
000001d0: 0cfc ec3d 6953 103e f0eb 63be 61fd d93d
000001e0: caf0 b33d a61f 223e d80e 5ebb 3b76 9d3e
000001f0: f0e7 403e 4ab2 7abe 2480 333e 9462 273e
00000200: ffec 573d 264e 2b3f 9c4c 223e 507b 963e
00000210: d006 e3be f0ef c83c f85a dabd 9697 823e
00000220: 471d 9ebd 7ca2 b8bd 74fe 0d3e 0210 cbbc
00000230: 1363 403e 6feb 2f3e 15c8 6bbe e518 9f3e
00000240: ed8f 84be 3a75 303e fb9f 933e 1e70 16be
00000250: 446a 97be 2e8b 5b3e a3f3 313e 0f0b 123e
00000260: 959b 513e 483e e13d c6ba fd3d b368 a53d
00000270: f3ab 293e 4066 ea3c 22a0 8fbd 0823 293e
00000280: 9780 12bd 9e93 753d 22b6 1e3f 6b7f ddbc
00000290: 78b8 683e 2045 43bd def3 32be dca7 883e
000002a0: 56a6 793e 8070 ca3c 0570 40be c9d2 963e
000002b0: 50bc 7e3d c151 653e 8fc5 503f 9ae1 03be
000002c0: cb86 7bbd 12eb 793d 8e02 303e caeb f23d
000002d0: 2aa8 64bc ef50 20bc 8f13 7abe e524 5c3e
000002e0: ab45 583e 689f 503e 18ec 763b bb5a ec3d
000002f0: 40fb aebc bff5 313e 8b00 403f 9c3b cdbd
00000300: b29c 8fbe 2e5f c5bc fe4c 1abd f4a9 843e
00000310: 1867 01bb f419 71be 211f e7bd 6f96 2d3e
00000320: 8f4b 463d f627 70be 58a6 45bd b009 053e
00000330: 5c4d 05be 165b de3d da26 e33d 7063 8f3e
00000340: 9c3e 0cbe 5428 8cbe 5afb f53d e10c b6bb
00000350: b9eb 433e 3133 f8bd 6123 e33c fa7a 63bd
00000360: 14d3 4ebd 9c0b 6dbe b8a3 7ebc ecfb 863e
00000370: 0585 5e3e c5f6 513d ad80 103f 5d7a 22bd
00000380: f6bd b9be 811a 69be 0a41 97bc 9219 4f3e
00000390: 93f6 e63d d6a4 583e c9d1 10be d3b8 ab3d
000003a0: 3096 2c3d 342f 7c3e 7a1d 4abe 7f6d 4f3d
000003b0: 7030 b9bd b405 f53b ddbe 0fbc 9eeb 3f3e
000003c0: b919 a53e 76c7 913e 20bb da3e dc47 d1be
000003d0: 50cb a0bc c89c 883d 1abd 35bd bfc9 99be
000003e0: 867e 5fbc 08b7 62bd d9a4 263d e0c1 96be
000003f0: 9480 4bbd c1ab 593e b671 96be 7c03 163e

decoder.0.bias f4 [32]
0.12988815 0.16476414 -0.022906175 -0.108620845 0.06262424 -0.070009105 -0.17288952 0.3186804
-0.09296643 -0.20816213 -0.006805839 0.19663072 0.18355891 0.22280611 0.27234575 -0.4270348
0.21471825 0.23238942 -0.21444502 -0.14925703 -0.14009254 -0.022912983 0.17730606 -0.12237609
-0.11497638 0.19888394 0.12862241 0.07248537 0.25400627 0.0059877797 0.09674147 -0.33554167
00000000: 6601 053e eeb7 283e bba5 bbbc 9b74 debd
00000010: 2341 803d ef60 8fbd f309 31be 142a a33e
00000020: 2f65 bebd 7428 55be 8403 dfbb 9059 493e
00000030: def6 3b3e 4927 643e e770 8b3e 4ea4 dabe
00000040: 1adf 5b3e 7ef7 6d3e 7a97 5bbe d6d6 18be
00000050: 6b74 0fbe 02b4 bbbc b88f 353e 51a0 fabd
00000060: bc78 ebbd 3ba8 4b3e 98b5 033e 3673 943d
00000070: 1c0d 823e 2335 c43b 6420 c63d 1ecc abbe

decoder.2.weight f4 [64, 32]
0.09190932 0.18912317 0.068610676 -0.27812466 0.2111263 -0.012875004 0.060214758 0.1549105
0.11838844 0.032240108 0.1947187 0.122538775 0.115122296 0.004578992 -0.04621836 0.16679993
-0.15599975 0.1954798 -0.10085833 -0.004089967 0.08718504 0.1531614 0.110760115 0.15006065
-0.077726565 -0.0749556 -0.30750814 -0.107395105 0.026633708 0.11799326 0.16363029 0.15085152
-0.3642285 0.0042037945 -0.16949712 0.7136099 0.42018524 0.08377934 0.15111923 -0.023553843
0.12228456 0.051446933 -0.026147962 0.022213293 -0.014905845 0.0742658 0.22586723 -0.098475024
-0.005944109 -0.0084590865 -0.061384734 -0.081175484 -0.17206879 0.10076118 0.1965061 0.18161026
0.103558734 0.20891528 -0.07176907 0.020302545 0.105965495 0.15989468 0.0122534465 0.40740126
0.46277004 -0.056990918 -0.24764562 -0.06864509 0.26455322 0.13384095 0.36403033 -0.15206014
0.26712307 0.27109462 0.25433016 -0.17783198 -0.42948022 -0.25704527 -0.4984885 0.42901352
0.09633137 -0.31818548 -0.12131311 0.08844302 0.29660842 -0.11445419 -0.46705562 0.16971514
0.14836155 -0.5563804 -0.3767917 0.067787156 -0.26628533 0.3357502 0.01761498 -0.3699318
-0.25867346 -0.02650011 0.09026532 0.5892173 0.29761875 -0.123097435 -0.044036772 0.060824648
0.24055119 0.31829277 0.026789716 -0.07452466 -0.004120988 0.15216732 0.10574381 0.22419316
0.1500603 0.13433424 -0.0034181576 -0.067766055 0.08247149 -0.051241163 0.17670617 -0.04178986
0.01134184 -0.01935725 -0.05471338 0.030001303 0.17104504 -0.04978108 0.156058 0.008906417
0.42715132 0.19096655 -0.1294725 -0.4088388 0.15298858 -0.08737313 -0.0412546 0.044797163
0.015446118 -0.014832525 0.2021553 0.13224675 0.15364584 0.12982734 -0.045131173 0.32285815
-0.07304568 0.19556825 0.09523542 0.08251078 0.38237977 0.20094037 -0.023087278 0.14284772
-0.016576037 0.045085676 0.1642256 0.16576868 0.12900534 0.4075152 0.24315774 -0.33914512
0.011950144 0.22681725 -0.061692458 -0.12995945 0.35428065 -0.061525557 0.061484527 0.096572965
-0.020424565 0.22666204 -0.027936455 0.11594963 -0.097285636 -0.023764446 -0.015001857 0.30692944
0.08968792 0.031288814 0.16055584 0.09746767 0.0129157845 -0.01114471 0.19431153 -0.065900266
0.16647474 0.10102778 0.15780939 0.20712578 0.20146048 0.04200582 0.23845975 -0.20988557
0.26892638 -0.06509042 0.51799846 -0.6114547 0.072756976 -0.106964834 -0.029369392 -0.1436741
-0.2610815 -0.38692537 -0.017146578 -0.06415386 -0.5145607 0.01983112 -0.10211086 0.50788385
-0.06766763 0.009668277 -0.047665406 0.08124836 0.513971 -0.38305292 -0.5079723 -0.08986591
-0.07392323 -0.33851582 -0.6744992 -0.62402225 0.013758178 0.25999537 -0.035361227 -0.20705692
-0.25137565 0.1947207 -0.04131395 0.3969918 0.34915626 -0.015165408 0.13382599 0.16619456
0.0757798 -0.15871681 0.17093912 -0.07235503 -0.00031686792 0.04712665 0.20043802 0.033168957
0.039833203 0.12241498 0.06786709 0.15072085 0.07028132 0.14915739 0.2065257 -0.022387257
-0.1713973 -0.0014535155 0.14913803 0.03896675 0.13220818 0.2247948 0.06354214 0.18717723
00000000: f43a bc3d 81a9 413e c183 8c3d 5b66 8ebe
00000010: 7e31 583e aef1 52bc c0a3 763d dca0 1e3e
00000020: a375 f23d 340e 043d 5764 473e 9cf5 fa3d
00000030: 3dc5 eb3d 5e0b 963b 774f 3dbd 9acd 2a3e
00000040: 66be 1fbe db2b 483e d08e cebd 2105 86bb
00000050: 128e b23d 58d6 1c3e 33d6 e23d 80a9 193e
00000060: 1b2f 9fbd 5282 99bd b571 9dbe f7f1 dbbd
00000070: ef2e da3c 73a6 f13d b38e 273e d278 1a3e
00000080: 287c babe fcbf 893b a790 2dbe 23af 363f
00000090: 8522 d73e 8194 ab3d 00bf 1a3e fdf3 c0bc
000000a0: 5470 fa3d 05ba 523d 4034 d6bc a7f8 b53c
000000b0: a537 74bc ab18 983d bd49 673e 46ad c9bd
000000c0: cdc6 c2bb fb97 0abc 8f6e 7bbd 553f a6bd
000000d0: cd32 30be e15b ce3d e538 493e 0af8 393e
000000e0: 9a16 d43d e3ed 553e aafb 92bd 8651 a63c
000000f0: 7004 d93d 6ebb 233e aec2 483c e696 d03e
00000100: 32f0 ec3e 4f6f 69bd d096 7dbe cc95 8cbd
00000110: 8573 873e 9a0d 093e 2f62 ba3e a7b5 1bbe
00000120: 5bc4 883e eacc 8a3e 9037 823e 9619 36be
00000130: d5e4 dbbe 709b 83be e239 ffbe a9a7 db3e
00000140: 6249 c53d 35e9 a2be 0273 f8bd 9d21 b53d
00000150: 0fdd 973e f566 eabd ea21 efbe cec9 2d3e
00000160: 17ec 173e f26e 0ebf d7ea c0be fed3 8a3d
00000170: 8d56 88be 73e7 ab3e 4a4d 903c b367 bdbe
00000180: d970 84be c216 d9bc 06dd b83d f2d6 163f
00000190: 7c61 983e 821a fcbd e75f 34bd 4423 793d
000001a0: 0d53 763e 45f7 a23e 1b76 db3c 63a0 98bd
000001b0: 5a09 87bb c0d1 1b3e 3690 d83d e492 653e
000001c0: 68a9 193e ea8e 093e 2b03 60bb eec8 8abd
000001d0: d0e6 a83d 41e2 51bd 76f2 343e d82b 2bbd
000001e0: 20d3 393c 1893 9ebc 231b 60bd 4bc5 f53c
000001f0: 6e26 2f3e 3fe7 4bbd abcd 1f3e 38ec 113c
00000200: 94b3 da3e bc8c 433e 7094 04be 5253 d1be
00000210: 0aa9 1c3e aff0 b2bd 95fa 28bd 3b7d 373d
00000220: b711 7d3c 1e04 73bc cd01 4f3e b16b 073e
00000230: 5655 1d3e 75f1 043e 77db 38bd aa4d a53e
00000240: f998 95bd 0b43 483e ca0a c33d 69fb a83d
00000250: 48c7 c33e 50c3 4d3e 8821 bdbc ac46 123e
00000260: 78ca 87bc c2ab 383d c12a 283e 44bf 293e
00000270: fa19 043e d5a5 d03e 58fe 783e 6ea4 adbe
00000280: 89ca 433c c842 683e 3bb1 7cbd 1714 05be
00000290: 4664 b53e 3902 7cbd 33d7 7b3d 0cc8 c53d
000002a0: 6b51 a7bc 181a 683e feda e4bc 0077 ed3d
000002b0: b13d c7bd a8ad c2bc 59ca 75bc db25 9d3e
000002c0: 4dae b73d b328 003d c068 243e 219d c73d
000002d0: ba9c 533c 4d98 36bc 9af9 463e b8f6 86bd
000002e0: 5b78 2a3e a7e7 ce3d c998 213e c818 543e
000002f0: a84b 4e3e 4b0e 2c3d cb2e 743e 3eec 56be
00000300: b8b0 893e 204e 85bd 8c9b 043f 4c88 1cbf
00000310: 9c01 953d 6110 dbbd 1498 f0bc 4e1f 13be
00000320: 79ac 85be 151b c6be fb76 8cbc 1963 83bd
00000330: 40ba 03bf df74 a23c 801f d1bd ad04 023f
00000340: 5495 8abd b167 1e3c cd3c 43bd 8a65 a63d
00000350: 9a93 033f 831f c4be 790a 02bf 9e0b b8bd
00000360: 1065 97bd f251 adbe fbab 2cbf ecbf 1fbf
00000370: fb69 613c 1d1e 853e efd6 10bd bb06 54be
00000380: 4fb4 80be dd64 473e d138 29bd 8242 cb3e
00000390: 9cc4 b23e 5578 78bc ae09 093e e82e 2a3e
000003a0: 7132 9b3d a986 22be aa0a 2f3e e02e 94bd
000003b0: 4b21 a6b9 e007 413d a03f 4d3e 2cdc 073d
000003c0: 2428 233d b4b4 fa3d e7fd 8a3d 9156 1a3e
000003d0: a7ef 8f3d b7bc 183e 797b 533e 7b65 b7bc
000003e0: c682 2fbe e383 beba a4b7 183e 999b 1f3d
000003f0: 9561 073e 9c30 663e 6222 823d 63ab 3f3e

decoder.2.bias f4 [64]
-0.1413448 0.14544363 -0.6360376 0.07964927 0.09253359 -0.013069332 -0.05610013 0.1614762
0.11369019 0.012011797 -0.051418256 0.16843319 0.08315139 0.19305219 -0.37548417 -0.09156076
-0.020689018 -0.023871424 0.05194232 0.19018893 0.118099734 0.19627145 0.22770552 -0.6082916
0.15921311 -0.095003225 -0.19879572 -0.08917471 0.1182838 0.10226234 -0.10381165 -0.17648527
0.031595696 -0.06846665 0.18396063 0.19894235 0.14030696 0.21284454 0.16197512 0.23167303
0.04321686 0.5800496 0.18293428 0.092578664 -0.11167273 0.08545162 -0.12408687 -0.07273652
-0.003200726 0.094409466 0.18991773 -0.09955224 0.11798251 0.016587906 0.14862198 0.09550468
-0.27672532 0.11531338 0.11124119 0.08039205 0.16166086 0.12387658 0.22336799 -0.1681346
00000000: b1bc 10be 2def 143e 5cd3 22bf 281f a33d
00000010: 4082 bd3d c020 56bc 40c9 65bd 045a 253e
00000020: 67d6 e83d 21cd 443c f39b 52bd c079 2c3e
00000030: 474b aa3d 79af 453e 763f c0be 3584 bbbd
00000040: 047c a9bc 018e c3bc 78c1 543d e3c0 423e
00000050: 46de f13d 62fb 483e a32b 693e 00b9 1bbf
00000060: c308 233e 0d91 c2bd 1b91 4bbe 3ba1 b6bd
00000070: c73e f23d eb6e d13d 349b d4bd 8eb8 34be
00000080: 7d6a 013d 3e38 8cbd 2d60 3c3e 8bb7 4b3e
00000090: a1ac 0f3e ebf3 593e cedc 253e b23b 6d3e
000000a0: 2a04 313d 217e 143f 2053 3b3e e299 bd3d
000000b0: acb4 e4bd 4201 af3d 4221 febd e2f6 94bd
000000c0: 45c3 51bb c059 c13d cb79 423e 0be2 cbbd
000000d0: d0a0 f13d 5ce3 873c 5c30 183e f597 c33d
000000e0: f1ae 8dbe 6c29 ec3d 6cd2 e33d 96a4 a43d
000000f0: 6d8a 253e 01b3 fd3d 94ba 643e 7a2b 2cbe

decoder.4.weight f4 [60, 64]
-0.049946178 0.057134997 -0.025538273 -0.0784036 -0.07855397 -0.0006945754 -0.45394275 0.017686293
-0.05573551 0.06923615 0.059741303 -0.11382191 -0.11255669 -0.01762067 0.2380623 -0.06568879
0.06521244 -0.006681172 0.067319505 -0.010635832 0.13473727 -0.07109657 0.068495534 0.1104544
0.0698133 -0.029331127 0.011182276 0.109327026 -0.12789932 0.12012428 0.019972654 0.061553605
-0.04453332 -0.03385684 -0.09946697 -0.07727708 -0.14505185 0.08788817 -0.09817292 -0.05070703
0.07794792 -0.08481223 -0.021432718 -0.015931007 0.09778493 -0.13564105 -0.006690234 0.06363958
0.18483698 -0.16946815 0.037246272 -0.03572185 -0.007890933 -0.07138311 0.058810525 0.058695287
0.23526463 0.018577421 -0.0072220066 0.12129118 0.014450622 -0.00779225 -0.061497547 0.07116492
0.120069 -0.08893552 0.18571702 -0.14075318 -0.0058524804 -0.011778191 0.2293575 -0.12844068
-0.25843838 -0.1279711 -0.05213775 -0.14732985 -0.01642654 -0.11114239 0.15722051 0.035206966
-0.001505296 -0.029219363 -0.025231697 -0.15991889 0.09586772 0.040943276 -0.102331236 0.09892775
-0.08720212 -0.04872019 -0.14487651 0.12289819 -0.264349 -0.04726216 0.1073786 0.002192371
-0.036049422 0.033771515 -0.23314856 -0.2004497 0.006949441 -0.21608676 -0.07169191 -0.12070432
-0.18957934 0.07919272 -0.21403375 0.011956132 0.20717226 -0.19913763 0.11948757 -0.29408666
0.18229164 -0.18556331 -0.2216219 -0.122393444 0.07046249 0.057594147 -0.014857974 -0.24045107
0.18947978 -0.12154221 0.012695408 -0.20066668 -0.012311337 -0.25808242 -0.1839 -0.03289956
0.021387182 0.013726287 -0.52581173 -0.11118741 0.11577628 -0.039683044 -0.35971534 0.004199683
-0.06287939 -0.047818217 0.07701165 0.07262063 -0.06544901 0.02556293 -0.15782814 -0.09963262
0.086395554 0.09846563 0.2092573 0.05799786 0.12841797 -0.010431245 -0.0573254 0.5554405
0.06545863 -0.0627951 -0.29743809 -0.011416743 0.054953016 -0.025684254 -0.058051284 -0.078474134
-0.14633341 -0.04239458 -0.05129687 0.0071085193 -0.008453025 -0.0052143396 0.0103174355 -0.041212097
0.19956248 0.3813169 0.016681788 -0.116673425 -0.54383653 -0.12296599 0.030536026 -0.020144334
0.0961447 -0.121177256 -0.0324586 0.05940377 0.034794692 0.013546671 -0.036722064 -0.07819093
-0.010533916 0.08779617 0.1407303 0.002861217 -0.1251764 -0.12283295 0.105924994 -0.08106813
0.11405032 -0.020788489 -0.53699356 -0.14338045 -0.051672373 0.055281017 -0.2463879 -0.1243886
-0.1252544 -0.0043034246 -0.10581091 -0.027080059 0.03213341 -0.17733991 0.002926131 -0.07148832
0.07255805 -0.06254532 0.0024883559 -0.117400974 -0.03521827 0.023133738 0.08937084 0.43597892
-0.0076967306 0.066839635 0.24971645 0.059655745 -0.14592832 0.09946031 -0.04531239 -0.06989383
-0.122707404 -0.035613626 -0.068986066 0.038308315 -0.031545285 0.030158771 0.047010902 -0.049248874
0.1180345 0.45308855 -0.13769877 -0.043894425 -0.21697734 0.070369 0.11232127 -0.056646276
-0.11046195 0.0050208117 0.046384964 0.03396175 -0.03781987 0.121251285 -0.056617305 -0.08908135
0.13004437 -0.053890463 0.092375875 0.079426326 -0.06869274 0.066450484 -0.09831081 0.052128013
00000000: 5d94 4cbd 6306 6a3d a435 d1bc 1192 a0bd
00000010: e7e0 a0bd 2b14 36ba 2f6b e8be d8e2 903c
00000020: eb4a 64bd afcb 8d3d 4cb3 743d 761b e9bd
00000030: 1f84 e6bd 3959 90bc 9bc6 733e d887 86bd
00000040: 1a8e 853d bced dabb cfde 893d ea41 2ebc
00000050: 91f8 093e 149b 91bd 6347 8c3d eb35 e23d
00000060: 47fa 8e3d d547 f0bc dd35 373c d9e6 df3d
00000070: 0af8 02be b803 f63d b19d a33c a21f 7c3d
00000080: 9268 36bd 78ad 0abd 57b5 cbbd 7243 9ebd
00000090: 7988 14be b6fe b33d e20e c9bd 2db2 4fbd
000000a0: 29a3 9f3d 09b2 adbd ab93 afbc be81 82bc
000000b0: 7743 c83d 7de5 0abe c039 dbbb 7855 823d
000000c0: e845 3d3e 0f89 2dbe 8c8f 183d 1351 12bd
000000d0: f948 01bc 4f31 92bd 4ee3 703d 786a 703d
000000e0: 36e9 703e ad2f 983c 95a6 ecbb 8367 f83d
000000f0: 4dc2 6c3c 2156 ffbb dae4 7bbd eabe 913d
00000100: bce6 f53d d323 b6bd 9a2c 3e3e 9a21 10be
00000110: 2ac6 bfbb 50f9 40bc b1dc 6a3e f485 03be
00000120: 0952 84be db0a 03be 658e 55bd a3dd 16be
00000130: f490 86bc 9f9e e3bd 6afe 203e 2e35 103d
00000140: 5a4d c5ba 725d efbc b4b2 cebc c7c1 23be
00000150: 4c56 c43d 23b4 273d 0a93 d1bd a29a ca3d
00000160: 0697 b2bd d28e 47bd 825a 14be 0cb2 fb3d
00000170: c158 87be f795 41bd 50e9 db3d e2ad 0f3b
00000180: 8fa8 13bd 0054 0a3d 7fbe 6ebe b042 4dbe
00000190: 23b8 e33b d945 5dbe 35d3 92bd d433 f7bd
000001a0: 1621 42be cb2f a23d aa2b 5bbe a7e3 433c
000001b0: f724 543e bcea 4bbe e6b5 f43d 8792 96be
000001c0: a9aa 3a3e 4f04 3ebe daf0 62be 6aa9 fabd
000001d0: a34e 903d d7e7 6b3d dc6e 73bc ce38 76be
000001e0: fd06 423e 1feb f8bd 6700 503c 917b 4dbe
000001f0: 7db5 49bc 6123 84be 4850 3cbe b0c1 06bd
00000200: 2c34 af3c 38e4 603c 999b 06bf 3ab6 e3bd
00000210: 1d1c ed3d b08a 22bd 9c2c b8be 7f9d 893b
00000220: e9c6 80bd 09dd 43bd 49b8 9d3d 20ba 943d
00000230: 210a 86bd 5a69 d13c b39d 21be 300c ccbd
00000240: 27f0 b03d 59a8 c93d 8c47 563e 2a8f 6d3d
00000250: 0080 033e d0e7 2abc 0ace 6abd 5931 0e3f
00000260: 2d0f 863d b89a 80bd ce49 98be 4a0d 3bbc
00000270: 6a16 613d c967 d2bc 2fc7 6dbd 0cb7 a0bd
00000280: 6dd8 15be f0a5 2dbd ab1c 52bd 95ee e83b
00000290: 8e7e 0abc 0ddd aabb 760a 293c 04ce 28bd
000002a0: 1b5a 4c3e f83b c33e 3fa8 883c 7af2 eebd
000002b0: df38 0bbf 98d5 fbbd b026 fa3c bb05 a5bc
000002c0: 83e7 c43d c82b f8bd 4ff3 04bd 5e51 733d
000002d0: e184 0e3d dbf2 5d3c e069 16bd 9122 a0bd
000002e0: 7296 2cbc 7ace b33d 9b1b 103e 4183 3b3b
000002f0: 3e2e 00be d78f fbbd 34ef d83d 0c07 a6bd
00000300: 3793 e93d 9f4c aabc 6978 09bf 53d2 12be
00000310: 69a6 53bd 596e 623d 1c4d 7cbe 73bf febd
00000320: b042 00be be03 8dbb 64b3 d8bd 00d7 ddbc
00000330: 539e 033d 9898 35be 55c4 3f3b 7868 92bd
00000340: 5199 943d c317 80bd af13 233b ec6f f0bd
00000350: 0841 10bd f782 bd3c 0f08 b73d a138 df3e
00000360: db34 fcbb 38e3 883d abb5 7f3e 9559 743d
00000370: 3c6e 15be d9b1 cb3d 7c99 39bd 7f24 8fbd
00000380: 054e fbbd 98df 11bd 9148 8dbd 2ee9 1c3d
00000390: a135 01bd 870f f73c 818e 403d 30b9 49bd
000003a0: 12bc f13d 39fb e73e e800 0dbe a4ca 33bd
000003b0: 4f2f 5ebe 9f1d 903d b208 e63d ed05 68bd
000003c0: e039 e2bd 9f85 a43b 29fe 3d3d 7a1b 0b3d
000003d0: 02e9 1abd 9852 f83d 8ce7 67bd 4870 b6bd
000003e0: 5a2a 053e 3fbc 5cbd 902f bd3d 45aa a23d
000003f0: c7ae 8cbd 3117 883d 2e57 c9bd 2f84 553d

decoder.4.bias f4 [60]
0.10251776 -0.12666333 -0.06329774 0.0069845896 0.017779095 0.066046365 0.0073904865 -0.09434578
-0.016059715 0.01817628 0.07371373 0.034436055 -0.16262613 -0.036509268 -0.031341657 -0.1448435
0.08220463 -0.02525701 -0.14792682 -0.10071774 -0.014581415 -0.03461415 0.05082061 0.02640748
-0.051063195 -0.1498889 0.03010402 -0.046395652 0.056481313 -0.13445944 -0.09848654 -0.1486979
-0.10579958 0.037335373 0.0055304626 -0.12597935 -0.13092068 -0.06303726 -0.031275295 0.059620533
-0.080775894 -0.054244045 -0.043203533 0.0432815 -0.027776351 0.047061678 -0.13949215 -0.069187015
-0.10555558 -0.15162303 -0.16820043 -0.118326 -0.14954919 0.04115733 -0.019240469 -0.12820196
-0.16304573 -0.17380829 -0.029337084 0.04139737
00000000: d5f4 d13d 08b4 01be 3fa2 81bd fcde e43b
00000010: 77a5 913c 5143 873d e52b f23b 5c38 c1bd
00000020: aa8f 83bc 6ce6 943c 39f7 963d d20c 0d3d
00000030: 7787 26be be8a 15bd 1c60 00bd db51 14be
00000040: e75a a83d cae7 cebc 217a 17be 1a45 cebd
00000050: e3e6 6ebc 91c7 0dbd 4629 503d 8054 d83c
00000060: a427 51bd 7a7c 19be b59c f63c 5e09 3ebd
00000070: f358 673d bcaf 09be 50b3 c9bd 4344 18be
00000080: 73ad d8bd faec 183d e238 b53b bb00 01be
00000090: 1210 06be ae19 81bd 861a 00bd a934 743d
000000a0: d56d a5bd 012f 5ebd 30f6 30bd f147 313d
000000b0: 3b8b e3bc bfc3 403d 08d7 0ebe ecb1 8dbd
000000c0: 862d d8bd 1143 1bbe bc3c 2cbe e754 f2bd
000000d0: 6c23 19be 9794 283d 309e 9dbc 6047 03be
000000e0: 76f5 26be cdfa 31be 5354 f0bc 4a90 293d

classification_head.0.weight f4 [8, 16]
0.60755414 0.51915306 0.3602387 0.27917346 -0.12760156 0.05247554 0.14965999 0.1665043
0.11416659 -0.10748011 -0.15161219 0.19177587 -0.06838468 -0.18259066 -0.14964087 0.29812557
-0.1149559 -0.22103098 -0.18740886 0.06809428 -0.23012328 0.122074604 0.12896913 0.037201136
-0.21792859 0.2185798 0.24418047 -0.048562944 -0.14108264 0.085427254 0.14081728 -0.10263866
-0.19944361 0.021573301 0.056140907 0.054469246 0.08673046 0.14897504 0.20680407 0.0028295268
-0.0966951 -0.24543375 0.1681838 -0.2632464 -0.22087178 0.08925241 -0.20008701 0.09022787
-0.040353835 -0.008141339 -0.20575464 -0.0024632514 -0.088232726 -0.15844873 -0.13548177 -0.21491799
0.043097854 -0.016307533 0.0011728704 -0.17218149 0.15439129 0.1029315 -0.04059428 -0.14683175
-0.6130959 -0.58929 0.23717129 -0.004954949 0.42247847 -0.013163477 -0.21014464 0.15017939
0.19810317 0.046247542 0.014639884 0.14897594 0.24747455 -0.10835144 0.342165 -0.38533282
-0.24419957 0.1864764 -0.003246545 0.19134209 0.10649186 -0.028109312 -0.14973614 -0.109219804
-0.26638213 0.20904642 0.15246323 0.07061508 0.21575278 -0.038162053 -0.056292128 -0.17960261
0.094212115 -0.07898775 -0.078148454 0.06986639 -0.14714238 0.22117883 0.043539643 0.16236758
-0.10384774 -0.13963431 -0.0077753365 0.13966665 0.115685314 0.14914325 0.19754499 -0.24642807
0.8062926 0.74672973 0.16812152 0.24017218 -0.020981563 -0.060031533 -0.21629375 -0.207782
0.12963781 0.24834329 0.23461881 -0.1671715 -0.19383839 -0.14329943 -0.6076872 0.6326561
00000000: ab88 1b3f 37e7 043f 3571 b83e d3ef 8e3e
00000010: fca9 02be 98f0 563d 7840 193e 1a80 2a3e
00000020: 2cd0 e93d 881e dcbd 3a40 1bbe e560 443e
00000030: 440d 8cbd 0cf9 3abe 753b 19be eaa3 983e
00000040: 006e ebbd f255 62be 1ce8 3fbe 0475 8b3d
00000050: 70a5 6bbe 4002 fa3d 7c10 043e 3860 183d
00000060: ac28 5fbe 62d3 5f3e 720a 7a3e f0e9 46bd
00000070: f877 10be 7cf4 ae3d 6832 103e 3834 d2bd
00000080: f23a 4cbe 7eba b03c 02f4 653d 251b 5f3d
00000090: bd9f b13d ea8c 183e 72c4 533e 956f 393b
000000a0: 1508 c6bd fc52 7bbe 6038 2c3e 3bc8 86be
000000b0: 362c 62be f8c9 b63d 9ce3 4cbe 64c9 b83d
000000c0: 104a 25bd 4063 05bc 58b1 52be 806e 21bb
000000d0: 5cb3 b4bd 6240 22be bcbb 0abe 7613 5cbe
000000e0: 6087 303d 6097 85bc 00bb 993a 5850 30be
000000f0: c018 1e3e c0cd d23d 3046 26bd 105b 16be
00000100: daf3 1cbf b6db 16bf 08dd 723e 205d a2bb
00000110: 194f d83e a0ab 57bc 2830 57be a0c8 193e
00000120: 8fdb 4a3e 106e 3d3d 20dc 6f3c 268d 183e
00000130: f869 7d3e 5ce7 ddbd 4030 af3e 584a c5be
00000140: 740f 7abe abf3 3e3e fdc3 54bb 2eef 433e
00000150: 6718 da3d 8045 e6bc 6e54 19be a2ae dfbd
00000160: 3d63 88be 4410 563e 521f 1c3e a49e 903d
00000170: 4cee 5c3e d04f 1cbd 9392 66bd bfe9 37be
00000180: 48f2 c03d 54c4 a1bd 4c0c a0bd 1c16 8f3d
00000190: 7eac 16be b47c 623e a056 323d b043 263e
000001a0: 20ae d4bd 4cfc 0ebe 40c8 febb c604 0f3e
000001b0: 6cec ec3d 02b9 183e 3c49 4a3e a457 7cbe
000001c0: 3169 4e3f ae29 3f3f 0c28 2c3e b2ef 753e
000001d0: 87e1 abbc a0e3 75bd 1c7c 5dbe cec4 54be
000001e0: c6bf 043e b44d 7e3e ea3f 703e 012f 2bbe
000001f0: 927d 46be 16bd 12be 6391 1bbf c0f5 213f

classification_head.0.bias f4 [8]
1.3051155 0.22683322 -0.058904972 0.19571197 -1.2978845 0.10456831 -0.06265199 2.1612647
00000000: 060e a73f f846 683e 5746 71bd b868 483e
00000010: 1421 a6bf e927 d63d b04f 80bd 2952 0a40

classification_head.2.weight f4 [1, 8]
-0.50037426 -0.28940076 0.2097335 -0.14954785 0.8847039 0.24160689 -0.28290305 -0.66530913
00000000: 8718 00bf 562c 94be 61c4 563e 1223 19be
00000010: f47b 623f cc67 773e abd8 90be b351 2abf
